molecules/notebooks/gat_model.pt (torch, 61656 bytes, 5 tensors)

conv1.att_src f4 [1, 3, 128]
000000 15 70 7a 3e f1 bb 45 be 6a 56 9e be b8 96 bb bd
       0.24456818 -0.19309975 -0.30925304 -0.09159607
000010 48 74 29 be 1a 47 76 bd 57 67 ed 3d 21 6a 39 3d
       -0.16548264 -0.0601264 0.11591976 0.045267228
000020 e3 bc 8d be bf f3 94 3d 5f d5 97 3a f3 b3 8c bd
       -0.27683172 0.072730534 0.0011583975 -0.0687026
000030 d0 db 9e 3e ca 5f 86 bc 40 a5 c3 be 8c 60 cd bd
       0.3102708 -0.016403098 -0.38212013 -0.100281805
000040 16 5d 53 bd 7c fb 62 be 66 93 01 be 3c 9e 3a be
       -0.051602446 -0.22166246 -0.12653884 -0.18224424
000050 de 3c 2a 3e f3 85 3a bd 57 cd 8e be 9d 09 ac bd
       0.16624781 -0.0455379 -0.27891037 -0.08400271
000060 1c 80 0d be b3 82 ae 3e 3c c0 77 3e 78 2c af bc
       -0.13818401 0.3408409 0.24194425 -0.021383509
000070 20 d1 40 be 89 18 94 be 7d 0b c9 be 5a 57 87 be
       -0.18829775 -0.2892497 -0.39266577 -0.2643383
000080 ab 96 c4 3e 6b 20 9d 3e 05 78 63 3b 22 58 38 3e
       0.383962 0.30688795 0.0034708988 0.1800237
000090 44 cd f3 bd c8 65 a7 be e5 fb 9c be 7d 9e 98 bd
       -0.11904386 -0.3269484 -0.3066093 -0.07452104
0000a0 30 98 ec 3d 7a c6 49 3e 95 bd 18 3e d8 5f 2c be
       0.11552465 0.19704619 0.1491607 -0.16833436
0000b0 3b 71 ae 3c 59 96 26 bd a7 aa 16 3d 8e 65 0f 3e
       0.021294227 -0.040670726 0.03678384 0.14003584
0000c0 cf b7 ab 3e 5a 40 34 bd f6 eb 64 3e b8 f8 dc bc
       0.33538672 -0.044006683 0.22355637 -0.026974067
0000d0 55 a6 3b 3e eb 80 e4 3d 1a ee 49 be 52 b5 24 be
       0.1832517 0.11157402 -0.19719735 -0.16084793
0000e0 5b 96 b4 bd 7d 62 fb 3d 36 6f 2c 3e 36 82 57 be
       -0.088177405 0.122746445 0.16839299 -0.21045765
0000f0 d8 db a2 be ab cc 8c 3d f9 7a e3 3d 21 ba df bd
       -0.31808352 0.06874975 0.111074395 -0.10924173
000100 8e ec 33 be 1c 58 81 be 2a 17 c2 3c 21 e7 79 3d
       -0.17570707 -0.25262535 0.023692686 0.061011437
000110 49 80 3a be 0f df 46 be fb 64 7d be ed 5f 67 be
       -0.18213 -0.19421028 -0.24745552 -0.22595187
000120 be 25 01 bc 69 ee 8b bd 23 1b 11 be 42 59 ac bd
       -0.007882534 -0.068325825 -0.14170508 -0.08415462
000130 40 cd 53 be 16 7f 17 be 6e 71 1d 3e fd 4b 8a bd
       -0.20683765 -0.14794573 0.15375301 -0.06752775
000140 27 e4 13 3d 77 14 8c 3e 0e a2 82 3e b5 e5 61 3c
       0.036106255 0.27359363 0.25514263 0.013787677
000150 60 91 77 be 36 81 7b bc 6e 40 be be da 51 65 3e
       -0.2417655 -0.0153506305 -0.3715853 0.22394505
000160 94 18 6d be 17 78 36 bd 7b 26 13 be a0 32 9d 3d
       -0.23153907 -0.04454812 -0.14370148 0.076756716
000170 de d0 55 3d b8 15 c4 bb 91 40 0a be 0d 50 af 3c
       0.052201144 -0.0059840344 -0.13501193 0.021400476
000180 f5 96 06 3d c5 74 45 be a7 92 2f 3e ef 4b 57 be
       0.032858808 -0.19282825 0.17145787 -0.2102506
000190 fa 36 63 3e 65 90 26 3d 4f 5d 51 bd 74 0d 84 be
       0.2218894 0.04066505 -0.051114377 -0.25791514
0001a0 11 4f 78 bd b6 6d c2 3d 82 a5 4f 3e 3e 23 2c 3e
       -0.06062228 0.09493582 0.2027798 0.16810319
0001b0 f2 0d 87 3d 9f 26 88 be 08 70 6b 3e 3a af 6f 3e
       0.06594457 -0.26591966 0.22991955 0.23406687
0001c0 46 fe f2 bb 64 b5 56 3e d1 1b 3b 3d 4a 92 e6 3d
       -0.0074155657 0.20967633 0.045680825 0.11258371
0001d0 0e 61 d8 bd f8 35 67 3e dd bd 30 3e 9a 48 d9 3d
       -0.10565387 0.22579181 0.17259927 0.10609551
0001e0 73 17 a9 be cb 06 b5 be 20 ca 47 3e 6b 52 fa 3d
       -0.33025703 -0.35356745 0.19510698 0.12222751
0001f0 2f a9 07 3d 36 9d a5 bc e8 8e b2 be 2c e1 0e bd
       0.03312033 -0.020216566 -0.34874654 -0.03488271
000200 88 93 07 3e 21 70 6f be 56 cc 65 be 4e 8f 8a bd
       0.13239872 -0.23382618 -0.22441229 -0.067656144
000210 6c 99 81 3e f1 25 cc 3d e6 ea 0b be 97 81 1a be
       0.25312364 0.09968174 -0.13663825 -0.15088497
000220 68 f0 10 3e 94 82 87 3d 94 d4 a3 bd a5 85 63 3e
       0.14154208 0.06616703 -0.079995304 0.2221895
000230 e9 da 7a 3e b1 35 73 3e de 6b a6 3e be 34 76 be
       0.2449757 0.2375095 0.3250417 -0.24043557
000240 be 49 d6 3e 8c 2a 4d be 47 be 3f 3e ac 83 9f be
       0.41853136 -0.20035762 0.18724929 -0.31155145
000250 05 3c 5e be e4 15 42 3e e8 00 df 3d 60 01 88 3e
       -0.21702583 0.18953663 0.10888845 0.2656355
000260 95 2e 71 bb 70 ab 34 bd ee ee 66 3e d6 98 f1 bd
       -0.0036801447 -0.044108808 0.22552082 -0.11796729
000270 93 d2 a9 be 52 1f ff 3d aa bf f2 3d aa 9c 0f 3e
       -0.33168468 0.12457146 0.11852963 0.14024606
000280 1a 4e 5e be 96 75 5c 3d 6b f6 3d be 9f a3 36 3e
       -0.21709481 0.053823076 -0.18551032 0.17835854
000290 bf f4 0a be 18 02 6f bd 64 82 01 3e 73 aa 41 be
       -0.13569926 -0.058351606 0.12647396 -0.18912677
0002a0 97 35 03 be d9 c0 78 bd 81 9b 74 3b 84 40 53 bd
       -0.12813412 -0.06073079 0.0037324133 -0.0515752
0002b0 77 ab 2d 3e 16 b6 67 be ad f7 72 3e 3d e6 0c 3e
       0.1695994 -0.22628054 0.23727293 0.13759704
0002c0 6f e6 08 be 48 45 19 3e f1 36 e0 bd d7 12 99 3d
       -0.13369153 0.14967835 -0.10947979 0.074742965
0002d0 2b 66 a9 be c6 6c 62 be 3f 54 5f 3e f2 82 5a 3e
       -0.3308576 -0.22111806 0.21809481 0.21339014
0002e0 2c 64 fd bc e7 a7 34 be 36 36 29 bd 9d 64 0a 3e
       -0.030931555 -0.17642175 -0.041311465 0.13514943
0002f0 fe 2e 97 3d d8 a3 5b 3e a3 5a 44 3e d6 21 62 bc
       0.0738201 0.2144922 0.191752 -0.013802012
000300 8a a1 88 be 8c f3 15 3b 5a d7 3d 3e 73 ec 93 bc
       -0.26685745 0.002288076 0.18539181 -0.018057084
000310 cb 80 3a be f5 36 c2 bc e1 a5 1c be b3 2c 77 3d
       -0.18213193 -0.023707846 -0.15297653 0.060345363
000320 1a 32 3b be 12 d4 81 be 51 18 62 bc 8d e0 95 3c
       -0.18280831 -0.2535711 -0.013799743 0.01829555
000330 94 a9 8f 3d 76 a2 6f 3e 31 2b 94 be 47 ad 20 be
       0.07014766 0.23401818 -0.28939202 -0.156911
000340 9b 74 0f 3e 71 81 4b 3e 4b 4a 3a 3e d9 5b 99 be
       0.14009325 0.19873597 0.18192403 -0.29952887
000350 a2 cb 3f 3e 9a ca 39 3e 98 17 d2 3c 56 68 a8 be
       0.18730024 0.18143693 0.025646016 -0.32892102
000360 fa f7 79 3e 93 4f 33 3d 84 be 72 3d 40 fb 05 3e
       0.24411002 0.04377706 0.05926372 0.13084126
000370 0d cc 5e be d3 ef 28 3e c1 db a9 be 12 dc 51 bd
       -0.21757527 0.16497736 -0.3317547 -0.051235266
000380 b2 4b bc bd 6b 61 96 3d 37 9f 46 3d 67 be 3f 3e
       -0.09194125 0.073428 0.048491683 0.18724976
000390 c8 d6 82 3d 10 06 51 be 02 73 e0 3d 2f eb 5b bd
       0.063886225 -0.20412469 0.10959436 -0.053691085
0003a0 74 09 82 3e 45 7f 56 be 31 94 23 3c 29 be ce 3d
       0.25397837 -0.20946987 0.009984062 0.10094864
0003b0 04 5b 0c be 4c 07 04 be 9b 25 4a 3e 90 73 7b 3e
       -0.13706595 -0.12893409 0.19740908 0.24555802
0003c0 11 2b 00 3e 53 5c 47 be 4d af 6b 3e 79 10 c8 bd
       0.12516429 -0.19468813 0.2301609 -0.09768767
0003d0 ef fa 43 bb 16 03 00 3d f4 55 15 be 29 00 6f be
       -0.0029904207 0.031252943 -0.1458357 -0.23339905
0003e0 7b b9 93 3b 3b bc c0 3d 75 f2 eb 3d 94 19 b5 be
       0.004508195 0.09410902 0.115208544 -0.35371077
0003f0 d9 1f 40 bd 54 67 d0 3d 84 b2 13 be b0 49 9d 3d
       -0.046905372 0.10175958 -0.14423567 0.076800704

conv1.att_dst f4 [1, 3, 128]
000000 ed f7 8a be 00 5d 14 be 5a 5d 7c bd 25 ad 32 be
       -0.27142277 -0.14488602 -0.061612464 -0.17448862
000010 ab 97 12 3d f4 bd e3 3d 26 2e 51 3e 42 21 86 be
       0.035789173 0.11120215 0.2042776 -0.2619725
000020 3b b5 d8 bd db 4f 38 3e 82 d4 96 bc 0d da 84 3d
       -0.10581442 0.17999212 -0.018411878 0.064869024
000030 b5 24 f5 3d cc 5b 9f bd dc a9 be 3d 33 88 fa bd
       0.11969892 -0.07781181 0.09309742 -0.12233009
000040 25 28 50 bd 2e dc 3e 3d 09 6e 4c be 8e bb cd bd
       -0.050819535 0.0465967 -0.1996385 -0.10045539
000050 0f 52 2c 3e ab 82 34 3e 42 34 bd 3d 29 ce a3 bd
       0.16828178 0.17627971 0.09238483 -0.07998306
000060 3a 44 bd bd 80 04 00 3e 32 7d 64 be 53 4a 88 be
       -0.09241529 0.12501717 -0.22313383 -0.26619205
000070 df 03 d7 3d d9 8d 95 3e df 9c 9b 3e 88 87 26 3d
       0.10498785 0.29209784 0.3039312 0.040656596
000080 a8 51 57 3d a6 0d 2d be 9a c2 62 be 6a 29 0d 3e
       0.052568108 -0.16899738 -0.22144547 0.1378533
000090 f1 fe d5 bd 84 26 53 bc 8f a4 09 be 8b 52 9e 3d
       -0.10449017 -0.012887601 -0.1344168 0.077305876
0000a0 71 17 8e be 60 bc 6b bd 95 93 5c 3e 90 b2 33 3d
       -0.2775226 -0.057552695 0.21540673 0.043871462
0000b0 59 d9 33 3d 34 dc 4a be 1a c9 10 be ee c6 81 be
       0.04390845 -0.19810563 -0.14139214 -0.25347084
0000c0 ed 65 5b be 97 6f a9 bd 22 9b 0d 3e 19 67 16 be
       -0.214256 -0.08273237 0.1382871 -0.14687766
0000d0 d4 43 d5 bc 17 c9 09 3e ed f3 74 be 29 d1 67 3e
       -0.02603332 0.13455616 -0.23921175 0.22638382
0000e0 32 d5 56 3e b1 39 05 3e 66 96 81 be 36 49 24 be
       0.20979765 0.13010289 -0.25310057 -0.16043553
0000f0 e1 97 3a 3e 7c ac 92 bd ff 8a f7 bc c8 e0 86 3e
       0.18222 -0.07161805 -0.030217646 0.2634337
000100 5e a9 f0 3d 31 b1 3d 3e 49 6b 86 bd dc 99 4a be
       0.11751054 0.18524624 -0.06563432 -0.19785255
000110 bd ca f0 bd 2a 8d 44 3e 85 c0 60 be 22 72 95 3d
       -0.11757419 0.19194475 -0.2194844 0.0729716
000120 2f da 86 bd ab 00 81 3d 64 90 ea bd 64 d9 1f bd
       -0.06584584 0.062989555 -0.114533216 -0.03902568
000130 8a 5b 0f bd 01 36 5a 3e 42 6c 08 3e b2 44 9a bd
       -0.034999408 0.21309663 0.13322547 -0.07532634
000140 2c 75 32 3e b5 6b b1 bb f5 15 0d be 87 17 68 be
       0.1742751 -0.005414451 -0.13777907 -0.22665225
000150 04 cd 54 3d ef 17 07 3d ce 3f f7 3d 7a be 8d be
       0.05195333 0.03298181 0.12072717 -0.27684385
000160 6f f6 31 3d 0f 05 a9 bd 5f 2a 94 3e d6 a2 ca bd
       0.043447908 -0.08252918 0.28938577 -0.0989434
000170 49 85 8e be 86 af 05 be 83 8e 0e be d9 32 18 3e
       -0.27836064 -0.13055238 -0.13921551 0.14863147
000180 94 e8 9d 3d 86 7c 4b be de fc 66 bc a5 cf 9b 3d
       0.077103764 -0.1987172 -0.014098374 0.076079644
000190 03 21 8a 3c cf de 92 3d a9 8a 9f bc 17 7e 32 be
       0.016861444 0.071714036 -0.019475298 -0.17430912
0001a0 3c 01 1e 3e 2e 5f 44 bd 33 1a 4f bd 24 bb 01 3e
       0.15430158 -0.047942333 -0.050562095 0.12669045
0001b0 9c 7c b0 3c f3 e1 1b 3e 49 06 50 be 7d 48 67 bd
       0.021543793 0.15222912 -0.20314898 -0.056465615
0001c0 38 1d 48 3e 4d bf 17 be da 36 7e be ec 8d 28 be
       0.19542396 -0.14819069 -0.24825612 -0.16460389
0001d0 56 8e 56 3e 7d 4a 8b bd 3c eb 51 be 01 6a c1 3c
       0.20952734 -0.06801317 -0.20499891 0.023610117
0001e0 f4 ec 29 3e 9d d7 30 bc d7 f6 38 be 19 57 68 3e
       0.16594297 -0.010793594 -0.18062912 0.22689475
0001f0 0e 09 5e be 44 42 51 3e 7f d0 99 be 2d ff d0 3d
       -0.21683142 0.20435435 -0.30041882 0.10204921
000200 ca 86 0a be 0d c6 2c bd d9 a5 be be e0 2a fa bd
       -0.1352798 -0.042181063 -0.37235907 -0.12215209
000210 13 7b cd 3d 0a 52 73 bd 94 49 a7 3e 53 a1 00 be
       0.1003324 -0.05940441 0.32673323 -0.1256154
000220 1c 4a 48 3e a7 15 f5 3d 3c a6 32 3e 64 a9 91 3e
       0.1955952 0.119670205 0.17446226 0.28449547
000230 bc 63 a3 bc fd cf 37 bd 47 1e d1 bd 2e 5e a0 be
       -0.019945018 -0.044876087 -0.10210853 -0.31321853
000240 22 4e 40 3e be ff 06 be cd 5d 7a 3e aa 90 31 be
       0.18779805 -0.13183495 0.24449845 -0.17340341
000250 f2 fc 4e be 8d 44 13 3e 0d 0c 28 be da 0b cd 3d
       -0.20213678 0.14381619 -0.16410847 0.10012026
000260 28 e1 71 3d da e2 07 be cb 05 41 3e 31 47 6d 3e
       0.059052616 -0.13270131 0.18849866 0.23171689
000270 24 f6 44 be cb 50 39 be 51 b0 0d be b4 5b b0 3d
       -0.1923452 -0.18097226 -0.1383679 0.08611241
000280 cf 7d 90 be ac 6c fc 3d 3b db 6c be 2b e3 48 be
       -0.28220984 0.12325415 -0.23130505 -0.19617908
000290 0f 51 2c be 46 f2 7a 3d 88 f5 23 be e9 05 90 3d
       -0.16827796 0.061266206 -0.16011631 0.07032377
0002a0 63 51 ef 3d 15 3e 0c be 3d 0f fd 3c e4 f0 ac 3d
       0.11685445 -0.13695557 0.030891055 0.08444384
0002b0 98 55 63 bd 2c ec 41 be 92 8f 5a be 85 5f 19 3c
       -0.05550155 -0.18937749 -0.2134383 0.009361153
0002c0 02 40 c0 bd bd f8 0c be af 82 8a 3c 40 84 74 3d
       -0.093872085 -0.13766761 0.016908018 0.059696436
0002d0 8b b1 2e be d3 4f 04 3e 6d 57 5c 3e a6 82 26 3e
       -0.17059915 0.12921076 0.21517725 0.16260776
0002e0 04 47 b1 3c fb af 85 3d 6a e1 a3 be 96 86 0c 3e
       0.021640308 0.06527706 -0.32007915 0.13723215
0002f0 14 42 76 bd 61 a0 26 3d e8 73 73 3e 83 92 6a be
       -0.06012161 0.040680293 0.23774683 -0.22907452
000300 40 d5 02 3e 3e 36 c5 bd d1 4d 59 be a5 40 89 be
       0.12776661 -0.096294865 -0.21221091 -0.26807132
000310 60 2a 72 bd 91 06 22 3d bf 09 c4 bd 92 91 44 be
       -0.059122443 0.039557043 -0.095721714 -0.19196156
000320 3e 37 a9 3e 08 e7 0e bd 30 7c 4e 3e 1a bc 1f 3e
       0.3304996 -0.034888297 0.20164561 0.15599099
000330 c2 a6 1d be 75 40 6d be 16 00 47 be 3d f9 10 be
       -0.15395644 -0.2316912 -0.19433627 -0.14157577
000340 fa 31 23 be d4 6e 08 be 02 cd ee bd a3 9e 3a be
       -0.15937033 -0.13323528 -0.11660196 -0.18224578
000350 43 e2 21 3e 40 67 8c bd fa 8d 13 3e 84 a7 97 be
       0.15808968 -0.06855631 0.14409629 -0.29619992
000360 b7 9a 8e bc 89 0f 97 be 25 83 1c 3e 92 21 c4 3d
       -0.017407758 -0.2950404 0.15284403 0.095767155
000370 df 27 ac 3c ff 08 1b 3e 89 a4 bf bc 52 78 25 3c
       0.021015106 0.1514015 -0.023393886 0.010099487
000380 d4 ac fb 3c e9 19 58 3e 93 0b a0 bd 8a 93 1a 3d
       0.03072206 0.21103634 -0.078147076 0.03773836
000390 1f 89 68 bb 9c 49 f8 bd 22 94 a0 3d c5 05 0f 3e
       -0.0035482121 -0.12123415 0.07840754 0.13967045
0003a0 8b 4e 68 3d 9e a3 8c 3d bc 5c 91 be 90 b6 d8 bd
       0.05671553 0.06867145 -0.28391063 -0.10581696
0003b0 4d 0c 64 3a 0e 6c 3a 3c f2 56 28 3e 7c df 8b be
       0.0008699343 0.011378301 0.16439417 -0.27318943
0003c0 66 52 4e be 7d 2c 05 be 2a 9d 14 3d 52 56 47 be
       -0.2014862 -0.13005252 0.036282696 -0.19466522
0003d0 61 bf 14 be 78 01 c2 3d 11 8f f9 bd 6c 68 46 be
       -0.1452613 0.094729364 -0.12185491 -0.19375771
0003e0 8d 65 c3 bd 87 d1 9c be 91 cf 76 3d 61 f2 a4 be
       -0.09540854 -0.30628607 0.060256545 -0.3221617
0003f0 98 bd ba 3d 9f 4d 25 3c cf e6 e0 bd cb 75 f9 3d
       0.091181934 0.010089307 -0.10981523 0.1218067

conv1.bias f4 [384]
000000 8f fd 55 bb 96 a5 29 3d 40 fd d9 bb 51 f7 86 3b
       -0.0032652353 0.04141768 -0.006652504 0.004118838
000010 9a 29 8b bb b4 db 63 bc c7 f5 0f bc 7d 5e 47 bb
       -0.0042469027 -0.013907362 -0.008786625 -0.003042131
000020 3d f9 51 3c 94 7c d4 bc fe 07 c0 bb 35 2d 9b bb
       0.012815771 -0.02593831 -0.0058603277 -0.0047356137
000030 cd 1b ab bc 7f dc 00 bc 0b fb 37 bb a3 75 52 3c
       -0.02088728 -0.00786507 -0.0028073217 0.01284543
000040 c5 df c8 bc 7a fc 6a 3d b7 57 21 3d ec d6 0d 3b
       -0.024520764 0.057369687 0.039390292 0.0021642996
000050 f9 06 94 bb 2e bb f4 bb 10 33 9e bc 79 6a 7d bc
       -0.004517433 -0.0074686026 -0.019311458 -0.01546728
000060 4e ae b4 3d ce 5a 2a 3c 9c f1 53 bb 6a 3c 4c 3d
       0.088223085 0.010397626 -0.0032340055 0.049862303
000070 3f ac 86 bc 75 20 ae bc bc 3b 6f 3c 9c 5b 25 3c
       -0.016439555 -0.021255711 0.014601644 0.010092642
000080 d0 d7 50 bb a5 ec 69 bc 54 07 6e 3d c3 a5 04 bd
       -0.0031866916 -0.014277612 0.058112457 -0.032384645
000090 7e 2f dd bb 81 f4 19 bc 97 75 59 3d c6 3e 1a bc
       -0.0067500463 -0.009396673 0.053090658 -0.00941438
0000a0 ff 84 28 3c 30 bb 89 bb 60 7a 03 bb 79 f6 ed 3a
       0.010285615 -0.0042032227 -0.0020061955 0.001815512
0000b0 18 28 ca bc c9 51 ab 3c ae 8d 0b 3c 66 99 2b 3c
       -0.024677321 0.020913022 0.008517666 0.010473585
0000c0 1a ef e4 3c fd 85 19 3b 54 ae 87 bc fd 2f f9 3a
       0.027946044 0.002342581 -0.016562618 0.0019011494
0000d0 e2 7e f4 bb 42 61 09 bc 2c 7a 8d 3b e6 4b c8 bb
       -0.0074614147 -0.0083850045 0.0043175425 -0.0061125634
0000e0 2c 77 3f bc 54 de 22 bc 44 17 24 3d 82 e6 d1 3b
       -0.011686128 -0.0099407025 0.04006125 0.0064056525
0000f0 e8 e9 ba bc fd 16 37 bc 31 a1 2f bc 2f b7 e5 3b
       -0.022816613 -0.011174914 -0.010719583 0.0070103626
000100 5a 53 06 bc af 79 84 3c 5a 98 af 3a 26 cb 66 3a
       -0.0081985835 0.016171305 0.0013396845 0.0008804075
000110 6b 62 80 bb 54 ce 99 bc 86 3c 52 3c 29 0e 12 bc
       -0.0039179823 -0.018775143 0.012831813 -0.008914509
000120 7f 7e eb 3c b4 c9 71 bd e6 ee 80 3b eb 25 bc 3a
       0.028746841 -0.05903025 0.003934729 0.0014354562
000130 ac 99 0c bc b3 11 21 bc a3 8f e0 3b 88 57 55 bb
       -0.00858156 -0.00983088 0.0068530603 -0.0032553393
000140 56 66 15 bc 72 98 1d 3c 81 22 36 3d c7 a0 f6 3b
       -0.009118637 0.009618865 0.0444665 0.0075264904
000150 7c 59 14 3d 5a e7 9a bc a1 c8 b8 bb 12 95 85 3c
       0.03621815 -0.018909145 -0.005639151 0.016306434
000160 4e c5 8f bc 85 45 94 bc e0 eb 47 bd d2 e2 b4 3b
       -0.017550137 -0.018099556 -0.048808932 0.005520203
000170 37 22 71 3c 75 13 9d ba 18 04 f3 3d 09 24 c3 bb
       0.01471763 -0.0011983948 0.11866015 -0.0059552235
000180 f6 47 e1 b9 f3 6a 74 bb 3d af 65 bc 1e e6 86 bc
       -0.0004296896 -0.0037295192 -0.014018831 -0.01646715
000190 f0 1e b8 bd 0c 8f 10 bc 8d 42 73 bc 82 db 27 bc
       -0.08990276 -0.0088231675 -0.01484741 -0.010245206
0001a0 ea a5 1a bc 0b f3 a7 bc 91 29 99 bc f5 02 17 3c
       -0.009438971 -0.020501634 -0.018696578 0.009217014
0001b0 6e 5d 2c 3c e8 95 39 3c 8d ae e7 3b f8 b8 33 39
       0.010520322 0.011327244 0.0070703686 0.00017139676
0001c0 54 e7 a1 ba 63 10 b2 3b a8 d5 9d 3b 10 14 e8 bb
       -0.0012352266 0.0054340824 0.0048167296 -0.0070824698
0001d0 42 7d a3 39 fa a1 fc 3c de bf cc 3b a4 6d ab bb
       0.00031183107 0.030838955 0.0062484583 -0.005231576
0001e0 71 0d 42 bc 64 a1 a9 bb 38 dc 00 3b 4d 90 03 bc
       -0.011844025 -0.00517671 0.001966251 -0.008030009
0001f0 cc 31 7f 3b c6 13 3a bb cd b5 a6 3e fa b1 08 bd
       0.0038939593 -0.0028393134 0.32560578 -0.033372857
000200 92 f1 95 bc 76 93 14 3c 1a bb 31 3c cd 5f 80 3c
       -0.018303666 0.009068361 0.010847831 0.015670681
000210 d2 68 01 3b e5 6f a1 bc 59 35 26 bc a5 62 dc bb
       0.0019746316 -0.019706676 -0.010144555 -0.0067256265
000220 fd a1 94 bb e9 10 a9 b9 ee 6f cf 3b 7f 27 7b bc
       -0.004535912 -0.0003224679 0.0063304817 -0.015329241
000230 a5 50 e5 bb 6d 0c 17 bc 6c c8 73 3c 8c 60 21 bc
       -0.006998139 -0.009219271 0.014879327 -0.009849679
000240 7c bb 52 3b 66 49 6b bc eb 7b 8f bc 93 a0 70 bc
       0.0032155206 -0.014360761 -0.017515143 -0.014686721
000250 f8 52 17 3c 89 1f 2f bc 3e 5e af bc 72 57 52 bc
       0.00923609 -0.010688671 -0.021407243 -0.012838231
000260 c8 88 aa 3c b0 d5 34 bc 6b dd 90 3c 28 af 9a bd
       0.020817176 -0.011037275 0.017683705 -0.0755294
000270 48 79 c7 3c 3f ac 42 3c 83 47 89 3d 29 85 ae 3c
       0.024349824 0.011881887 0.06703093 0.02130373
000280 6f 5f 29 3c 7e 48 52 3c 88 23 e5 3b ce db cf bb
       0.010337695 0.012834666 0.006992761 -0.0063433414
000290 df e0 21 3c 18 a6 f0 3b 84 59 88 39 78 d6 d4 bb
       0.009880274 0.0073440187 0.00026006636 -0.006495293
0002a0 7f 59 95 3c 4a ce a6 bb 8a 7d 29 bc a3 51 8b bc
       0.018231152 -0.0050905095 -0.010344872 -0.0170067
0002b0 df 0c 24 3d 58 ef 79 bb 77 a7 4b 3c 1d 5e e8 b8
       0.040051337 -0.0038137045 0.012430063 -0.00011080152
0002c0 8f d0 25 3b bf 0b 4b 3b ee 80 18 bc 80 79 9a 3b
       0.0025301313 0.0030982343 -0.009308083 0.004714191
0002d0 ad 9e a4 3c f0 50 48 bd 02 0d a8 3c de a0 7e bc
       0.020095194 -0.048905313 0.020514015 -0.015541283
0002e0 28 fb 9d 3b 7c cd 16 bc c2 28 cd 3c 07 be 73 bc
       0.0048212 -0.009204265 0.025043849 -0.014876849
0002f0 f1 4e 9f bc 6d e8 6b 3c cb 44 88 bb ec c7 09 3c
       -0.019446822 0.014398676 -0.0041585914 0.0084094815
000300 51 70 72 bb 5c e1 4c 3c ae d6 32 ba c5 b8 a8 ba
       -0.0036993215 0.012504902 -0.0006822151 -0.0012872448
000310 96 fb 58 ba 3d 0a 6d bc e5 30 4f 3c 7d e5 50 bc
       -0.00082772353 -0.014467773 0.012645935 -0.012750027
000320 35 6c b0 bb 4b 39 43 bb b1 62 70 bc 02 96 7e bc
       -0.005383993 -0.0029788788 -0.014671967 -0.015538694
000330 9e df 09 3b 05 98 99 3c d2 5c 0f bb 5f c6 10 3b
       0.0021037827 0.018749246 -0.0021875394 0.0022090895
000340 14 4b 39 3c 2e 06 c8 3b cd 29 75 3c ae 8a 56 3c
       0.011309404 0.0061042523 0.014963579 0.013094587
000350 a0 58 4f 3b e5 70 e9 bb 99 c4 79 bc 35 75 63 3d
       0.0031638518 -0.007124054 -0.015244626 0.0555317
000360 84 14 25 3b e8 87 a8 bb 73 e2 5a 3c 8c 4e 63 bb
       0.002518923 -0.0051431544 0.013359654 -0.0034684269
000370 a5 a5 12 bb ad 79 98 bb 51 83 3a bc 56 c1 39 bc
       -0.0022376564 -0.0046531768 -0.011383847 -0.011337599
000380 ba 3c c4 3b 0c 2b 72 bc f6 7e 8b 3b d9 cb 63 bc
       0.0059886845 -0.014780771 0.0042570783 -0.013903582
000390 fc 87 f4 bc f8 e2 09 3d 2a 7e 77 bd 68 0c 5f ba
       -0.029849999 0.03366372 -0.060423054 -0.00085086236
0003a0 ed c4 d7 bc 10 2d c1 bb 4c 9d 4b bb 0d ec 8b bb
       -0.026339019 -0.0058952644 -0.0031069098 -0.004270083
0003b0 8c 02 ff bc a8 39 2c 3c 6c 74 37 bc 41 0b 23 3d
       -0.031129144 0.010511793 -0.011197191 0.039805654
0003c0 59 c1 99 ba de e9 db bb 0f 1e 47 3c 35 ef 96 3c
       -0.0011730596 -0.0067112288 0.012153163 0.01842461
0003d0 05 96 f4 3b 5f 2d 8a bc a7 92 eb 3b 01 24 ee bc
       0.007464173 -0.016867338 0.007189113 -0.029069902
0003e0 8c 0e c5 3b d5 f6 a2 3b f6 a7 86 3b b1 a3 0e 3d
       0.006013697 0.0049732723 0.004109378 0.034824077
0003f0 b6 3f df 39 ac 67 82 bb 0d ec 29 3d 79 00 51 bc
       0.00042581343 -0.003979644 0.04148488 -0.01275646

conv1.lin.weight f4 [384, 34]
000000 15 da 49 bd 87 01 8a 3c 8f 9d 4a bd 1d 1e 7a bc
       -0.049280245 0.016846431 -0.049466666 -0.015265969
000010 14 a3 cc bd 45 b1 69 bd 2c 99 20 be c5 7c a4 3d
       -0.09992042 -0.057053823 -0.1568343 0.080316104
000020 a3 10 44 3d cb 5b 26 be 05 65 63 3d dc 6e f0 b9
       0.04786743 -0.16245954 0.05551626 -0.00045858964
000030 bf c9 75 bc 2c cf c2 3d 5a 10 e2 bd 3d aa 8f 3d
       -0.015001713 0.09512171 -0.11038275 0.07014892
000040 c4 06 a3 3d 50 56 ca bc 6a 41 76 3d 71 41 1c 3d
       0.07960275 -0.02469936 0.060120977 0.038148347
000050 d4 d7 9b bd cb b4 90 be cd 62 16 3e c4 f4 47 bd
       -0.07609525 -0.28262934 0.14686127 -0.04881741
000060 ae 8c 04 3d 6c 0f 6d bc d6 38 0b 3c 63 e5 d8 3d
       0.032360725 -0.014469009 0.008497437 0.10590627
000070 e0 22 3b bb 82 ed df 3d 18 5d 95 bd 82 3e 3c 3c
       -0.0028554723 0.10933973 -0.07293147 0.011489512
000080 b3 5c ef bd b3 95 86 bc b8 92 08 bd 49 4c 07 3e
       -0.11687603 -0.016428804 -0.033343047 0.13212694
000090 6e 51 4a 3d 09 48 b5 bd 86 51 8c 3d 00 19 27 3e
       0.049394064 -0.0885163 0.06851487 0.1631813
0000a0 53 69 d9 bd 41 3f 91 be 09 ad 3e b9 19 06 56 3d
       -0.10615792 -0.2836857 -0.00018184273 0.05225191
0000b0 60 d5 f6 3d ae d2 d6 3d 9a 8e 3d 3e 17 2d 12 3e
       0.12052417 0.10489403 0.1851143 0.14275013
0000c0 c5 01 1c 3c 4f 49 8a bd 1b ba bd 3b e8 cb 41 bd
       0.009521906 -0.06752264 0.0057900078 -0.0473136
0000d0 80 ea 89 bb f4 24 cd bd d8 f3 6f bd b3 53 18 3e
       -0.004208863 -0.10016814 -0.058582157 0.14875679
0000e0 b3 f5 22 be 4a 0a d2 bd d4 8e e0 bb 1b 7f 00 3e
       -0.1591404 -0.10255869 -0.006852964 0.12548487
0000f0 c4 29 b3 3d 98 7c 17 be 30 ff 14 bc 20 fa 2e bd
       0.087482005 -0.14793622 -0.009094045 -0.042719007
000100 38 2c 9b bd 4e 57 08 be 24 23 22 3c f6 0e fa bb
       -0.075767934 -0.13314554 0.0098960735 -0.007631178
000110 3c 5d e4 bc 01 37 79 3c 64 23 b7 bd bc fa 27 be
       -0.027876489 0.015210868 -0.08942297 -0.16404241
000120 de 72 da bd 4a e2 b1 bd 16 be 8e bd 44 f8 04 3d
       -0.106664404 -0.08685739 -0.0696985 0.032463327
000130 64 2b 4a 3d 87 81 00 bd 99 28 83 bd 96 2c 8e 3d
       0.049357787 -0.031373527 -0.06404228 0.06942098
000140 bf 79 0f 3e e0 eb d4 3a e5 08 ae bd b3 e2 b8 3c
       0.14011286 0.0016244613 -0.0849779 0.022569036
000150 bb 80 dd 3b 1e 25 0e 3d 48 cb c2 bd e8 85 52 be
       0.0067597306 0.034703366 -0.09511429 -0.20558894
000160 0f c1 26 3c 66 db 03 3e 2d af ab be 3c d3 ab bd
       0.010177865 0.12876663 -0.33532086 -0.08389899
000170 5f b2 d0 bb b6 d7 b6 3d 62 40 19 be 4e a9 c9 be
       -0.0063689197 0.08927862 -0.14965966 -0.39386982
000180 29 49 c0 3d b0 92 6f bc 71 30 23 be 1a d4 f9 3b
       0.09388954 -0.014622375 -0.15936448 0.0076241614
000190 81 cd 62 3d 20 bd ca bc 97 0b 0e 3d a5 5c 0e 3e
       0.055371765 -0.024748385 0.03467902 0.13902529
0001a0 e7 9c 0e 3d 0a 3d 41 bd 97 76 9a bc a1 c8 a5 3c
       0.034817602 -0.047177352 -0.018855376 0.020237269
0001b0 0c 2b 88 3d f8 ca 8c bd 77 e8 b4 3d eb fd bd 3c
       0.066488355 -0.06874651 0.08833402 0.023192367
0001c0 0d e9 93 3d e6 93 90 bc 3b ab 22 3e cb 5f f1 3d
       0.07222185 -0.017648648 0.15885632 0.11785849
0001d0 3e fa 8d bd e3 cc 68 3d 63 38 98 bd 65 0f b0 3d
       -0.069324955 0.05683602 -0.0743263 0.08596686
0001e0 98 e7 83 bd e9 63 d6 bd c5 a1 c8 bc c4 d1 c4 bc
       -0.064406574 -0.10468275 -0.0244912 -0.024025805
0001f0 42 69 41 be 10 59 b8 bd 7a 78 a4 3b 2c 02 3b 3d
       -0.18887809 -0.09001362 0.0050192447 0.045656368
000200 f2 99 1a bd de 63 19 bd 3b 6a 89 3d 42 0f 07 bd
       -0.03774447 -0.037448756 0.06709715 -0.032973535
000210 e3 7d ec bd 04 c0 3e bd 63 42 ae 3a a0 3b 07 be
       -0.115474485 -0.04656984 0.0013294931 -0.13206339
000220 9d 9d 9f bd 50 b7 91 ba bb 9e 97 3d ad c7 d0 bc
       -0.07793734 -0.0011117253 0.07403322 -0.025485838
000230 66 b6 05 be e5 e5 bc 3b 1c 50 7f 3d 73 f3 07 bd
       -0.1305786 0.0057647103 0.062332258 -0.033191156
000240 53 b7 d3 bd 27 25 0d 3e 1d 19 61 bc 9f 2b b0 3d
       -0.10337701 0.13783704 -0.013738898 0.0860207
000250 ee ee ff 3d 7f da b0 3b 6f e3 c4 bd 2f e3 ab 3d
       0.12496744 0.0053971405 -0.09613692 0.08392941
000260 01 34 46 bc 28 2e 6d bc c3 7c 94 3d 8a 1d 2a 3d
       -0.01209736 -0.014476337 0.07250359 0.041532077
000270 77 e0 c8 bd dc cc cc bd 27 fb 21 bc 6d d6 83 3d
       -0.09808438 -0.10000011 -0.00988654 0.06437383
000280 13 60 94 3d f4 54 b8 bd 24 47 d7 bd f7 69 e2 bc
       0.07244887 -0.090005785 -0.10511616 -0.027638419
000290 ce 18 97 bd a1 a8 e6 3c 2b 6b 4c 3d b0 00 20 3d
       -0.07377778 0.02815658 0.04990689 0.039063156
0002a0 18 e1 80 3d 42 5d 10 be 99 bb af 3d a1 ea a4 3d
       0.06292933 -0.14098075 0.08580703 0.080525644
0002b0 b4 37 f0 3d 06 a1 71 3d 92 70 c7 3d 3b a8 0a 3d
       0.117293745 0.058991455 0.09738268 0.033851843
0002c0 44 e6 4a 3c 58 cf 18 3d d1 69 a2 ba 43 9f 23 3e
       0.012384001 0.037307113 -0.0012391155 0.15978722
0002d0 bc 1b 31 3d 92 95 6f 3a 5f 0d 40 3e a0 7c 99 3d
       0.04323934 0.0009139414 0.187551 0.074944735
0002e0 77 dd cf 3d 91 f8 82 3d 10 85 f3 bc 1a fd 17 3d
       0.10149663 0.063950665 -0.029726535 0.03710661
0002f0 a6 7f 19 bd 47 d4 0d bd e1 79 07 bd 2d d2 83 bd
       -0.03747525 -0.03462627 -0.033075217 -0.06436572
000300 18 3e ff bc 9d 3e f4 bd 27 a6 c4 3d 8a 07 4d bd
       -0.031157538 -0.11926005 0.096020035 -0.050056018
000310 d8 04 c4 bc 05 08 4a 3d 2e 1c 41 3d dc 2f 68 bd
       -0.02392809 0.049324054 0.047146015 -0.056686267
000320 78 bb 5f bd 2a a1 17 be ec 80 c6 3b e3 30 e2 bd
       -0.054622144 -0.14807573 0.006057849 -0.11044481
000330 0d ab f1 bb ad 09 e9 bd 32 c1 8d 3b cd d4 a6 bd
       -0.007375127 -0.11378799 0.004326009 -0.08146057
000340 e2 e9 58 3d 21 f8 70 bd 5a 82 9a bb 88 18 19 3e
       0.052957423 -0.058830384 -0.004715246 0.14950764
000350 5e d6 a9 3c 39 69 07 3d 3d ba 56 bd c1 53 cf 3d
       0.020732101 0.033059333 -0.052423704 0.10123397
000360 0c 70 21 bd 5b bb ec 3d 22 46 6b 3d fc 76 16 3d
       -0.039413497 0.11559173 0.05743993 0.036734566
000370 c8 09 57 3d ce c6 26 3d e8 83 47 bd 1e 79 db 3c
       0.052499563 0.04071694 -0.04870978 0.026791152
000380 bc 95 b4 bd 91 ac 0b 3e 33 88 90 3d 61 af a0 3d
       -0.08817622 0.13640048 0.07057228 0.07845951
000390 a8 fa 49 bb b9 78 09 bd a4 ef 0a bd ac 8d b9 3d
       -0.0030819569 -0.033562396 -0.033919945 0.09060225
0003a0 44 9a b8 3c ca 86 49 3d 13 10 30 3d 3b 5e 18 bd
       0.022534497 0.04920081 0.04298408 -0.03719924
0003b0 73 fe ae 3d 5c c3 e2 bc 41 2a cf 3d 75 42 bc ba
       0.08544626 -0.027681045 0.10115481 -0.0014363067
0003c0 07 28 6e be 7e 69 1a bd a3 c7 cf 3d aa 7c 78 bc
       -0.23257457 -0.03769826 0.101454996 -0.015166441
0003d0 ea 79 4e bd aa 89 71 bd ec 05 80 bc 32 17 13 be
       -0.050409235 -0.058969177 -0.015627824 -0.14364317
0003e0 22 1d 43 3e 6a b1 e4 bc 4e c1 35 bd 92 dd ab bd
       0.19054082 -0.027916629 -0.044373803 -0.083918706
0003f0 82 2d e2 bd 59 67 c4 3d 06 19 5e bc 9b c6 cc 3d
       -0.11043836 0.095900245 -0.013555771 0.099988185

conv2.lin.weight f4 [1, 384]
000000 60 63 50 bd 5d ca 1a 3b 5b 4b e5 3a 92 11 b6 ba
       -0.05087602 0.0023619153 0.0017493771 -0.0013890734
000010 be 47 37 bd 78 36 3a bd 0d 66 35 3d f8 e2 0d bb
       -0.044746153 -0.0454621 0.044286776 -0.0021650176
000020 73 05 3b 3d 76 9c 70 3c 4c 1c 40 3d 48 bd 99 bd
       0.045659494 0.014685741 0.046901986 -0.07506806
000030 94 2a 07 bd 72 bc 80 3d 88 3e 0f bb b3 12 6b 3c
       -0.03299959 0.06285943 -0.002185734 0.01434772
000040 00 99 b1 bd a1 98 f9 3b bf 92 f2 3b 5a d2 a2 bc
       -0.086717606 0.0076170717 0.0074027474 -0.019875694
000050 c4 4b 94 3d ac 02 1d 3d cd 53 36 3c ec 7e 1b bd
       0.07241014 0.038332626 0.011128378 -0.03796284
000060 1b f1 98 3b c4 82 53 bb 69 3a 9c bc 08 e7 64 3c
       0.004667414 -0.0032273987 -0.01907082 0.013971098
000070 4a 71 4b bd a6 c5 23 bd e8 8b 9e 3c 92 a7 8d 3d
       -0.049668588 -0.039983414 0.019353822 0.06916727
000080 fa 33 a4 bd 31 84 b1 bb 08 75 cb ba f8 f6 8b bc
       -0.08017726 -0.00541737 -0.0015522549 -0.017085537
000090 f8 68 98 3d 51 7d a8 3d 93 26 76 3c c5 d8 ef 3c
       0.07441896 0.08227027 0.015023845 0.029278168
0000a0 46 f9 34 bd 74 b0 39 37 86 17 92 3d 0f 33 89 bd
       -0.04418304 1.1067943e-05 0.07133393 -0.06699192
0000b0 28 1d 47 bd f3 b0 02 3d 77 30 2c bb a9 c9 00 3d
       -0.04861179 0.031907033 -0.0026274004 0.031442318
0000c0 6e 7d 5b bb bb bd 18 3d 1b 0d d7 bc 20 42 5d 3d
       -0.003349151 0.037290316 -0.026251366 0.05401814
0000d0 a0 05 6b bb 95 96 7a bc dd 99 10 bd fa 8c 8a 3d
       -0.0035861507 -0.015294691 -0.035302985 0.067651704
0000e0 4a 3a 8b 3d d9 a3 60 bd a4 58 77 3c 0e 5e 45 bd
       0.06798227 -0.054843757 0.015096817 -0.0481854
0000f0 b2 40 34 bd bc 4e 35 3a 2c 24 83 bb f3 91 3e 3a
       -0.04400701 0.00069163344 -0.0040021148 0.0007269673
000100 01 59 53 bd 4c 2c f2 3a ca 27 dd 3c 77 72 04 bd
       -0.051598553 0.0018476336 0.026996512 -0.032335725
000110 d1 69 08 bd ea ef 92 bd bd 8b 81 3d 7f 4e 16 3d
       -0.03330404 -0.07174666 0.06325481 0.036695953
000120 48 2e 85 38 8f 98 3a 39 44 ee 1b 3a f9 30 51 3d
       6.350555e-05 0.00017795175 0.0005948285 0.051072095
000130 72 5c ba 3d cf 31 9d 3d 4f 69 97 3a 5d 3d d2 3d
       0.09099664 0.07675516 0.001155177 0.1026561
000140 d7 46 f6 3c 01 a0 b6 bb f0 58 a0 ba 74 a1 ff bb
       0.030063076 -0.005573273 -0.0012233537 -0.007801229
000150 92 f8 13 39 03 0f 5e 3c 84 43 b4 bb ad de 45 3d
       0.00014111612 0.013553384 -0.0055012126 0.048308063
000160 e9 41 cd bc 8f cb fa 3a f0 11 10 3d 2e ff 1a bd
       -0.025055842 0.0019134152 0.035173357 -0.037841015
000170 2f 45 07 3d e9 ac 71 bd ba dd b3 b8 a4 20 20 3d
       0.033024963 -0.05900279 -8.576685e-05 0.03909363
000180 8c 95 02 ba 84 32 6d bd 83 a1 80 3c e1 13 d2 bb
       -0.00049813907 -0.057909504 0.015702015 -0.006411061
000190 ef 8a 3c bb 3c 19 2b 3c 34 a7 a4 bd f5 77 c4 bd
       -0.0028769334 0.010443028 -0.08039704 -0.095931925
0001a0 2d 43 08 3c ab cd 0f bc 23 ab b6 bd 26 bd a3 39
       0.008316797 -0.008777062 -0.089193605 0.0003123071
0001b0 f7 8e 9c bc 51 3d 58 3c 78 83 6a 3c 96 f3 3f bb
       -0.01911114 0.013198213 0.014313571 -0.0029289476
0001c0 3c 6c f5 3d 30 6d c5 3c 11 9c ea bc 9d 2a ad 3c
       0.11983535 0.024099916 -0.028638871 0.021138484
0001d0 32 df 00 bd 74 bd 23 3c 0d e2 1e bd 75 6f 58 3c
       -0.031462856 0.0099939 -0.038789798 0.013210167
0001e0 e9 f6 3e 3a fe 9c 93 3d b8 f1 b4 3d d1 7a e8 3c
       0.0007284717 0.07207678 0.08835167 0.028378876
0001f0 ad 2e 94 bd 52 a9 ac 3d 7e 12 c8 3a 0c e7 a0 3a
       -0.07235465 0.08430733 0.00152643 0.0012275889
000200 41 c6 34 3b 1b ee 7e 3c 72 87 40 bb 8c dd 3c 3d
       0.002758399 0.015559698 -0.0029377607 0.04610972
000210 8c 59 b3 bd 65 9d df ba 49 a7 aa 3d f6 8f 94 bd
       -0.08757314 -0.0017060457 0.08332688 -0.07254021
000220 f2 5a 61 3d f4 ca 13 3a f5 e2 8b 3d b8 d8 ce 3b
       0.055018373 0.00056378474 0.06830398 0.006312456
000230 2c c1 9c 3d 71 3d 30 ba 47 4b 54 bb fb 1e aa bd
       0.07654032 -0.00067230227 -0.0032393502 -0.0830669
000240 e3 99 9b 3b bf 3e 5c bd 8f 34 fd 3a ac 06 fa bc
       0.0047485693 -0.053770777 0.0019318032 -0.03052076
000250 2d 45 1c 3d 20 5c ac bd 51 aa b5 39 3f f8 4d 3d
       0.03815191 -0.08416009 0.00034649906 0.050285574
000260 65 59 cc 3c ae 88 c1 bd 78 52 fb 38 2e a3 8c ba
       0.02494497 -0.09449898 0.00011983974 -0.0010729784
000270 67 c8 29 bc 1c c4 10 3d 2b 5e 33 3b a6 70 04 3d
       -0.010362721 0.035343274 0.002736936 0.032333992
000280 ef cc b1 3d f2 2b 19 3d 08 fa 74 3d 74 63 54 bd
       0.08681666 0.037395425 0.05980876 -0.05185266
000290 2d 59 89 3d 87 2c 11 3a ad 4f 7c bd d4 fb 47 3d
       0.06706462 0.0005537946 -0.061599422 0.048824146
0002a0 c8 42 20 bb b7 91 39 3d c8 88 bc bd 53 24 91 bd
       -0.0024453867 0.04530498 -0.092057765 -0.070870064
0002b0 02 9b bc bb 15 24 68 bb 13 76 8b 3d 30 88 c6 3d
       -0.005755783 -0.0035421897 0.0680963 0.096939445
0002c0 d6 06 56 bb be d3 7f bc 5e 49 b2 bd 40 cb 38 bd
       -0.0032657883 -0.015614448 -0.087054 -0.04511571
0002d0 bd 2f 9c bb 83 53 96 bb 83 33 20 3b be a7 32 bd
       -0.004766433 -0.004587592 0.0024444766 -0.043617003
0002e0 9a bc 8f bd 05 27 22 bb a8 13 78 bc 0c 6f 2f bc
       -0.07018395 -0.0024742496 -0.015141405 -0.010707628
0002f0 e8 e8 e3 bb bb d1 96 bc b6 0c 7c 3d 28 91 a5 3c
       -0.006955255 -0.018410554 0.06153556 0.020210817
000300 b3 ef 93 3d c4 3c 5c ba 65 c6 ca 3d 1b 57 a9 bb
       0.072234534 -0.0008401389 0.09901122 -0.0051678545
000310 71 7e a8 3d 9f eb 10 3d d1 9e 77 3d 7c 82 4e bc
       0.08227242 0.035380956 0.060454194 -0.012604352
000320 98 eb 1d bc 66 5b 98 bd 20 9e 83 bd 94 8e af b8
       -0.009638689 -0.07439308 -0.06426644 -8.3712075e-05
000330 b1 8a 7b bd af 90 e7 3c b3 16 a9 ba 7f 6d 9f bd
       -0.061411563 0.028267233 -0.0012900442 -0.077845566
000340 e4 45 c8 3d 3f 26 27 bd fc 83 ce 3d 15 ff 24 bc
       0.097789556 -0.04080796 0.10083768 -0.010070582
000350 33 d0 21 3b 93 d5 4f 3d 96 8b 58 bd ec 28 ec bb
       0.0024690747 0.05074079 -0.052867495 -0.0072070267
000360 50 c6 04 3b ee b6 76 bd 3d a8 b9 3c 19 ca 75 3d
       0.0020259805 -0.06023305 0.02266323 0.06000719
000370 52 2e 9d bb 9b 7b b1 3b 5d a5 b5 bb 14 90 14 b7
       -0.0047967816 0.0054163462 -0.0055433945 -8.855033e-06
000380 fd 7e 0d ba 6a b6 11 3d 83 bf b9 3d 7a 86 ba bd
       -0.0005397646 0.035574354 0.09069731 -0.091076806
000390 47 e1 7f bc f2 63 01 bb 58 5d a9 ba 88 f0 a5 3d
       -0.015617675 -0.001974341 -0.0012921495 0.08102518
0003a0 51 34 77 bc 84 5d 6c bd 33 ac 07 ba 60 80 ca bd
       -0.015088157 -0.05770637 -0.0005175501 -0.09887767
0003b0 da d7 b4 ba fb 2d b5 3d 8b 9a 34 3b 5c 9d 81 3b
       -0.0013797239 0.08846661 0.0027557935 0.0039555263
0003c0 bb be 73 bd a0 61 f3 b9 6a 64 25 3c 9e da 6e ba
       -0.059508067 -0.00046421308 0.010094741 -0.0009111556
0003d0 84 d4 90 3d b3 de 5f bd a1 a5 b5 3d 28 36 a8 bb
       0.07071784 -0.054655742 0.08869482 -0.005133409
0003e0 49 21 14 3d 5b b1 a1 3d 68 ac 2d bc cc eb f5 bb
       0.036164556 0.07895156 -0.010600187 -0.007504916
0003f0 af 7c cd 3d 28 07 84 b8 0e 49 dd b9 aa c8 91 bd
       0.10033547 -6.2955834e-05 -0.00042206835 -0.07118352
