molecules/notebooks/gcn_model.pt (torch, 85728 bytes, 3 tensors)

conv_layers.0.W f4 [34, 128]
0	0xbe819879	-0.2531164
1	0x3d45832e	0.048220806
2	0x3d859097	0.06521719
3	0xbef9a622	-0.48759562
4	0x3d395b1a	0.045252897
5	0x3d3a610f	0.04550272
6	0xbcc26ca4	-0.023733445
7	0xbdeb15d0	-0.1147877
8	0xbdda3a20	-0.10655618
9	0xbdc86cd1	-0.0978638
10	0xbe0e3324	-0.13886696
11	0x3c5f3428	0.013623275
12	0xbe8f3d9f	-0.279767
13	0x3d074bf3	0.033031415
14	0xbdfc94bb	-0.123330556
15	0x3d0f6cfe	0.035016052
16	0xbe2e1db9	-0.17003526
17	0xbc96c26c	-0.018403254
18	0xbd115bdc	-0.035487995
19	0x3c4fde4c	0.012687277
20	0xbe9768f9	-0.29572275
21	0x3c337215	0.010952492
22	0x3db099b0	0.086230636
23	0xbd83813d	-0.064211346
24	0xbd498bc9	-0.049205575
25	0xbe4ba752	-0.19888046
26	0xbe0e28c9	-0.13882746
27	0xbe93c853	-0.28863773
28	0x3c469cd0	0.012122348
29	0xbe90c908	-0.28278375
30	0xbedc9d17	-0.430886
31	0xbe8c1f5f	-0.27367684
32	0xbc56a7cf	-0.013101532
33	0xbda3b7c5	-0.07994036
34	0x3d14e82a	0.03635422
35	0xbda22b2d	-0.079183914
36	0xbbb8dfc3	-0.005641909
37	0xbe885f96	-0.26635426
38	0xbeed9051	-0.46399167
39	0xbdc27445	-0.09494833
40	0xbe9c38ba	-0.3051203
41	0xbeb59664	-0.354663
42	0x3c132e4d	0.008983207
43	0xbd242186	-0.040071033
44	0xbcef389f	-0.029201804
45	0xbe9cdecc	-0.3063873
46	0xbce0c712	-0.027438674
47	0xbce05a07	-0.027386678
48	0xbb84171d	-0.0040310756
49	0xbd02ea8d	-0.031961966
50	0xbdccb1e1	-0.09994865
51	0x3ba0e728	0.0049103685
52	0xbdae7318	-0.08518046
53	0x3dc6f091	0.09713853
54	0xbde07a3c	-0.10960814
55	0xbe2161a1	-0.15759899
56	0xbebd5ba6	-0.36983985
57	0xbd92d5cc	-0.07169685
58	0x3b5365f3	0.0032256811
59	0xbd89a410	-0.067207456
60	0xbd2da2e5	-0.042391676
61	0xbd69f57c	-0.057118878
62	0xbd34dab5	-0.044153888
63	0xbe6fbeb7	-0.23412596
64	0xbcba203f	-0.022720454
65	0xbeec8942	-0.4619847
66	0x3e34daf0	0.17661643
67	0xbd9d57a1	-0.076827295
68	0xbda694f6	-0.08133881
69	0xbe8580c8	-0.26074815
70	0xbe684924	-0.22684151
71	0xbeec8e95	-0.4620253
72	0xbf0efa3a	-0.55850565
73	0x3df0a4f6	0.11750214
74	0xbe247c75	-0.16063102
75	0xbe7c42b5	-0.24634822
76	0xbd09d92f	-0.033654388
77	0x3d7f97e4	0.062400714
78	0x3e3644e5	0.17799719
79	0xbe62fc3f	-0.22166537
80	0xbe389ee4	-0.18029362
81	0xbdea5cdb	-0.11443492
82	0x3d18c28e	0.037294917
83	0xbe53f4ac	-0.20698804
84	0x3ccb1f23	0.02479512
85	0xbcfeb94f	-0.031094221
86	0xbda8f3ad	-0.082496025
87	0xbf13da69	-0.5775514
88	0xbd316b61	-0.043315295
89	0xbe340736	-0.17580876
90	0xbaa54769	-0.0012609783
91	0x3a551a5f	0.0008129235
92	0xbc9d1a68	-0.01917763
93	0xbe279dc7	-0.16368781
94	0x3d960665	0.073254384
95	0xbe4e750d	-0.20161839
96	0xbdcdca4f	-0.10048353
97	0xbe217e0f	-0.15770744
98	0xbd1d94ca	-0.038471974
99	0x3d822b69	0.06355936
100	0xbcb69945	-0.022289881
101	0xbdb5f828	-0.08885223
102	0xbd93d9e2	-0.07219292
103	0xbe0a25e8	-0.13491023
104	0x3dfe21e7	0.1240881
105	0xbe71ad7d	-0.23601337
106	0x3d97385c	0.073837966
107	0x3d291127	0.041276123
108	0x3d97b5fc	0.07407758
109	0x3d2d30f2	0.042283006
110	0xbdbde39d	-0.092719294
111	0x3cebe5c5	0.028796086
112	0xb81243a0	-3.4872093e-05
113	0xbe9eb791	-0.30999425
114	0x3b6949e3	0.0035597018
115	0xbdb5ab44	-0.08870557
116	0x3b775e80	0.0037745535
117	0xbdd4fc6e	-0.1039971
118	0xbd37b164	-0.044846907
119	0xbd0d37b2	-0.034476943
120	0xbea363a1	-0.31911948
121	0xbdfa4f6e	-0.12222181
122	0xbe94fed7	-0.29100677
123	0xbd3c5f69	-0.045989428
124	0xbc676be2	-0.014124842
125	0xbdd6023e	-0.104496464
126	0x3da1978d	0.07890234
127	0x3dd4600e	0.103698835
128	0xbe1a4786	-0.15066347
129	0x3d2b7811	0.04186255
130	0xbeff26ae	-0.49834198
131	0x3d1ddfa1	0.038543347
132	0xbde1e483	-0.11029913
133	0x3d132203	0.035921108
134	0xbd4e20cb	-0.050324243
135	0xbdb0aa4a	-0.0862623
136	0x3c06f32c	0.008236688
137	0xbdafd902	-0.08586313
138	0xbca7b6d1	-0.020472916
139	0xbd10fc17	-0.03539666
140	0xbe9d5aa2	-0.3073321
141	0x3b9695f5	0.004595513
142	0x3de68a5a	0.11256857
143	0xbdc9a897	-0.09846609
144	0xbf40132c	-0.75029254
145	0xbd07d4d6	-0.03316196
146	0xbd7fc52c	-0.062443897
147	0xbe06e1bb	-0.13172047
148	0xbec07c18	-0.37594676
149	0xbd6598d3	-0.056053948
150	0xbf296a1d	-0.6617754
151	0x3d39589d	0.045250524
152	0xbd3f6191	-0.046723906
153	0x3ce10413	0.027467763
154	0x3da7f256	0.08200519
155	0x3eb50ab7	0.35359737
156	0xbd9790ee	-0.0740069
157	0xbdf223b1	-0.11823214
158	0x3c5bda7a	0.013418788
159	0x3e3ee147	0.18640624
160	0xbe24e3ad	-0.16102476
161	0x3da24601	0.079235084
162	0x3d1c586e	0.03817027
163	0xbddcff40	-0.107908726
164	0xbe61972a	-0.22030321
165	0xbe92b613	-0.28654537
166	0xbc8ca1cd	-0.017166996
167	0xbea2f8f8	-0.31830573
168	0x3ddf10c5	0.108918704
169	0xbf37fda7	-0.7187142
170	0x3f169b45	0.5883067
171	0xbe02493e	-0.12723252
172	0xbed315f0	-0.41227674
173	0x3e28909b	0.16461413
174	0xbe6f71cc	-0.23383254
175	0xbd777ecf	-0.06042367
176	0xbe71c5a1	-0.23610546
177	0xbdbfbe09	-0.09362418
178	0xbdac6aee	-0.08418833
179	0xbd4ea015	-0.050445635
180	0x3d5814de	0.052754276
181	0xbebc7c28	-0.36813474
182	0x3dc413a3	0.09574058
183	0xbd75b299	-0.059984777
184	0xbcb80528	-0.022463396
185	0xbbcbc660	-0.0062187165
186	0xbe3caaec	-0.18424577
187	0x394ea26d	0.00019706199
188	0xbe2548a6	-0.16140994
189	0xbde7b8e0	-0.11314559
190	0xbe428657	-0.18996559
191	0xbee293c8	-0.44253373
192	0xbd6943ae	-0.05694931
193	0xbdce11cb	-0.100619875
194	0xbf3dfd91	-0.74215037
195	0x3cc5c059	0.02413957
196	0xbbf0983f	-0.007342368
197	0xbf611878	-0.8792796
198	0xbd11a049	-0.03555325
199	0x3e6e1812	0.2325137
200	0x3ebb0e8e	0.36534542
201	0xbeac9783	-0.33709344
202	0xbaf4d0f1	-0.0018677992
203	0x3d80b688	0.06284815
204	0xbd214a4c	-0.039377496
205	0xbf894792	-1.0724967
206	0xbedb5bbd	-0.42843428
207	0xbd976be1	-0.07393623
208	0x3eaf734f	0.3426766
209	0xbd987a5a	-0.07445212
210	0x3bc4a55c	0.0060011577
211	0xbeb4c131	-0.35303643
212	0xbd25fe2a	-0.040525593
213	0xbd14a310	-0.03628832
214	0xbea2a784	-0.3176843
215	0x3ea703c9	0.32620075
216	0x3d58d0be	0.052933447
217	0xbe90f682	-0.2831307
218	0xbc8f25cc	-0.017474078
219	0xbd2fca83	-0.04291774
220	0x3ec6a0c6	0.38794535
221	0xbed2d65e	-0.41179174
222	0xbf525a74	-0.8216927
223	0xbd83f5f0	-0.06443393
224	0xbef19383	-0.47182855
225	0xbd113a06	-0.035455726
226	0xbd20a18a	-0.039216556
227	0xbc9fcc60	-0.019506633
228	0x3cdc2e2d	0.026877487
229	0xbe5f2557	-0.21791588
230	0xbd663d92	-0.05621106
231	0xbe0aa544	-0.13539606
232	0xbf0ead8e	-0.55733573
233	0xbee6a765	-0.45049587
234	0xbe44640e	-0.19178793
235	0xbd973dd2	-0.07384838
236	0xbf3d65e5	-0.73983604
237	0xbdcd22c3	-0.10016396
238	0x3c124e08	0.008929737
239	0xbeb3ca0b	-0.35115084
240	0x3ea01ad5	0.3127047
241	0xbed80795	-0.42193285
242	0x3c92292c	0.017841898
243	0x3cd43acc	0.025906943
244	0x3da5724d	0.08078442
245	0xbd3d3cc1	-0.046200518
246	0x3d3231a1	0.04350436
247	0xbcb984ac	-0.02264627
248	0xbecc688f	-0.39923522
249	0xbc9ec63e	-0.019381639
250	0xbe13b2a8	-0.1442362
251	0xbda599b8	-0.0808596
252	0xbd4e7ae8	-0.05041018
253	0xbc8ef64c	-0.017451428
254	0x3cb8b97c	0.022549383
255	0xbf460478	-0.7735057

conv_layers.1.W f4 [128, 128]
0	0x3f047e61	0.5175534
1	0xbe149390	-0.14509416
2	0xbe710238	-0.23536003
3	0xbcb7bc55	-0.02242867
4	0xbf2acca4	-0.66718507
5	0xbe07b4a3	-0.13252501
6	0x3b9cae99	0.004781556
7	0x3f0eb580	0.557457
8	0x3c8a7190	0.016899854
9	0xbd647111	-0.05577189
10	0xbbd8409f	-0.0065995003
11	0xbd4e93a9	-0.05043379
12	0xbe8a2a1b	-0.2698525
13	0xbe47bc59	-0.19505443
14	0x3ce7b51d	0.028284604
15	0x3c831a7a	0.016003836
16	0xbeec393f	-0.46137425
17	0xbd2b55bf	-0.04182982
18	0xbe0ba544	-0.13637263
19	0x3e2047eb	0.15652435
20	0x3d1ce324	0.038302556
21	0x3f15f6d9	0.58579785
22	0xbc7436b8	-0.014905624
23	0xbe6d88ad	-0.23196669
24	0xbf38f7b0	-0.7225294
25	0xbee8fdb0	-0.45506048
26	0xbe4b9fba	-0.1988515
27	0xbc55acc0	-0.013041675
28	0xbee3d130	-0.44495535
29	0x3dd5b6dd	0.10435269
30	0xbec979cc	-0.39350736
31	0x3dae6f72	0.0851735
32	0xbca00e0b	-0.019537946
33	0xbd470321	-0.04858697
34	0x3ea7551c	0.3268212
35	0xbd85adce	-0.06527291
36	0xbee60c45	-0.44931236
37	0x3e10a4d2	0.14125374
38	0x3eea5e97	0.4577529
39	0xbf0253ea	-0.5090929
40	0xbdbea6b6	-0.09309141
41	0x3e4ad386	0.19807252
42	0xbf14b44d	-0.5808762
43	0x3cd3dd07	0.02586223
44	0x3f41513a	0.75514567
45	0x3ea89922	0.3292933
46	0xbebdccc3	-0.37070283
47	0x3ee5c1b9	0.4487436
48	0xbe5d24fe	-0.21596143
49	0xbd49a61d	-0.049230684
50	0x3ebf9671	0.37419465
51	0xbcfef1b3	-0.03112111
52	0xbdd655b2	-0.10465564
53	0x3e8bea57	0.27327225
54	0xbeed0bdd	-0.46298113
55	0xbe8639ce	-0.26215976
56	0xbe97ecfd	-0.29672995
57	0x3e902350	0.2815194
58	0xbd89aa14	-0.06721893
59	0x3f265ea9	0.6498819
60	0x3e964fcf	0.29357764
61	0x3e0a260d	0.13491078
62	0xbe7887e0	-0.24270582
63	0xbd924263	-0.071415685
64	0xbde3a85d	-0.11116097
65	0xbe7624bc	-0.2403745
66	0xbea3a3f9	-0.3196104
67	0xbf706a92	-0.93912613
68	0x3b04a043	0.0020237125
69	0x3f87619a	1.0576661
70	0xbe1cd493	-0.15315466
71	0xbd64b916	-0.055840574
72	0x3dd91ebc	0.10601565
73	0x3b537e79	0.0032271428
74	0x3e88cd62	0.26719195
75	0xbf867d87	-1.0507058
76	0xbf0f47d2	-0.55968964
77	0xbeda1eb7	-0.4260156
78	0x3ea4c9fa	0.32185346
79	0x3f39d1a0	0.7258549
80	0xbd84dc0e	-0.064872846
81	0xbd897d45	-0.067133464
82	0xbd5609ba	-0.05225537
83	0x3ecc720e	0.39930767
84	0xbde80c35	-0.11330453
85	0x3e579722	0.21053746
86	0x3c3134bf	0.010815798
87	0xbf21d165	-0.63210136
88	0xbf05dea3	-0.5229284
89	0xbe00da41	-0.12583257
90	0xbc8d4fdb	-0.017249992
91	0xbc9d7fdd	-0.019226009
92	0xbe924099	-0.2856491
93	0xbe9cd024	-0.3062755
94	0x3ea1cac1	0.316
95	0xb9deb5c0	-0.00042478554
96	0xbf1eb986	-0.62001836
97	0xbd9b4e9e	-0.075833544
98	0x3f69df73	0.9135658
99	0xbdc1d4cc	-0.09464416
100	0xbbef56b6	-0.007304038
101	0xbc4426e0	-0.011972159
102	0x3d27424a	0.040834703
103	0xbb8fe771	-0.0043916036
104	0xbdc734c0	-0.09726858
105	0xbd136886	-0.035988353
106	0x3ed3ff23	0.4140559
107	0xbd9af05e	-0.07565378
108	0xbdbbf980	-0.09178448
109	0x3f14c437	0.581119
110	0xbe81d185	-0.25355163
111	0x3e533bd7	0.20628296
112	0x3ec19c21	0.3781443
113	0xbda2ca45	-0.07948736
114	0xbd8338af	-0.06407296
115	0xbee61d36	-0.4494416
116	0xbd889465	-0.06668929
117	0xbe39da8b	-0.18149774
118	0xbe3d9cb8	-0.18516815
119	0xbc009c26	-0.007849729
120	0x39ffdeda	0.00048803427
121	0x3ebfe673	0.37480506
122	0xbe4a0102	-0.19726947
123	0xbf3cd7d5	-0.73766834
124	0xbe0d403b	-0.13794033
125	0xbdc090a0	-0.09402585
126	0xbe26f272	-0.16303423
127	0x3c9b13e9	0.018930392
128	0xbcb8f00c	-0.0225754
129	0xbd740066	-0.059570692
130	0xbcea6710	-0.028613597
131	0x3d21943f	0.03944802
132	0xbd32b90a	-0.0436335
133	0xbd4c8723	-0.049933564
134	0xbbdb6cf0	-0.006696336
135	0x3b91ae40	0.004445821
136	0x3d3f0042	0.046631105
137	0x3d5da31e	0.05411064
138	0x3c2e48a8	0.01063744
139	0x3bff61c0	0.007793635
140	0x3d30197a	0.042993046
141	0xbd906c24	-0.07051876
142	0xbdd4fc98	-0.10399741
143	0xbdbc5ca0	-0.09197354
144	0x3c904530	0.017611116
145	0x3d1ee06e	0.03878825
146	0x3caeb06a	0.021324355
147	0x3d770f7e	0.06031751
148	0xbdd32d58	-0.10311383
149	0x3cae8a3c	0.02130615
150	0xbb78a7e0	-0.0037941858
151	0xbd4a70a2	-0.04942382
152	0xbda4724b	-0.08029612
153	0x3d34be61	0.044126872
154	0xbca3b250	-0.019982487
155	0x3d387f78	0.04504344
156	0x3d8d5c7f	0.06902408
157	0xbd3bddf2	-0.04586596
158	0x3d271368	0.04078999
159	0x3baee120	0.0053368956
160	0xbd903e37	-0.070431165
161	0xbda96186	-0.08270554
162	0xbdeefe23	-0.116695665
163	0x3ca08204	0.019593246
164	0xbbbe91a1	-0.0058157
165	0x3cfa917c	0.03058695
166	0xbd62402a	-0.055236973
167	0x3d36e8e8	0.04465571
168	0xbd338bc9	-0.04383448
169	0x3d2be559	0.04196677
170	0xbd09ab87	-0.033610847
171	0xbd20f7b3	-0.039298724
172	0x3cf4f3dc	0.029901437
173	0x3d0daba0	0.034587502
174	0x3abd6a2a	0.0014451195
175	0x3cb8d850	0.022564083
176	0x3cf336fd	0.029689306
177	0x3d95147f	0.072793
178	0x3d993d8d	0.07482443
179	0xbd5e62e1	-0.054293517
180	0xbdd48842	-0.103775516
181	0xbcc49d5d	-0.024000818
182	0x3c9a88ce	0.018864062
183	0xbdc805d0	-0.09766734
184	0x3ccb9bd2	0.024854574
185	0x3d1994be	0.037495367
186	0xbcf2d940	-0.029644608
187	0x3db4be89	0.08825404
188	0x3ce8e318	0.0284286
189	0x3d84d22f	0.06485402
190	0xbb921fd9	-0.004459363
191	0x3d82277f	0.063551895
192	0xbc9cb85c	-0.019130878
193	0xbca8780d	-0.020565057
194	0x3ba537f0	0.0050420687
195	0xbc92e378	-0.017930731
196	0x3d09a033	0.033600044
197	0x3d941e37	0.072323255
198	0xbdceabf0	-0.10091388
199	0xbcc2dd56	-0.023787182
200	0xbdf83999	-0.12120361
201	0xbd1c60e8	-0.038178355
202	0x3d9c6355	0.076361336
203	0x3da4643b	0.0802693
204	0x3d91bc03	0.071159385
205	0xbd121a45	-0.035669584
206	0xbdae0ade	-0.084981665
207	0x3c33c4fd	0.010972259
208	0xbc5351e0	-0.0128979385
209	0xbcae4008	-0.021270767
210	0xbdb3e562	-0.08783986
211	0xbbbb4cc0	-0.0057159364
212	0x3cd6d698	0.026225373
213	0x3d08e2d5	0.03341945
214	0xbc10ae98	-0.008830689
215	0xbde1fea3	-0.11034896
216	0x3c59ed48	0.013301201
217	0xbd59aec7	-0.053145196
218	0x3d8bcbe7	0.06826001
219	0x3d5ad9f6	0.05343052
220	0xbd2298ae	-0.039696388
221	0xbd0c64c6	-0.034275793
222	0xbdb3c8cd	-0.08778534
223	0xbd56ba6a	-0.052423872
224	0x3d2a875f	0.041633006
225	0xbd817c53	-0.06322541
226	0xbd1073ed	-0.035266805
227	0xbc3f85d8	-0.011689626
228	0x3d36b98e	0.044610552
229	0x3d0de730	0.034644306
230	0xbc82feec	-0.015990697
231	0x3cb9da8b	0.022687217
232	0x3d297827	0.04137435
233	0x3d076a30	0.033060253
234	0xbdfca931	-0.12336958
235	0xbc8bfc30	-0.017088026
236	0x3cc885eb	0.02447792
237	0x3aa9c700	0.0012952983
238	0xbd85b36f	-0.06528365
239	0xbcc9b808	-0.024623886
240	0xbd7cc560	-0.06171167
241	0x3d362113	0.044465136
242	0x3cf293d0	0.029611498
243	0x3c5ed011	0.013599412
244	0xbcdc948e	-0.026926305
245	0x3c4ac3c0	0.012375772
246	0xbd192bb8	-0.03739521
247	0x3d4af893	0.049553465
248	0x3d783ac2	0.06060291
249	0x3d81db51	0.063406594
250	0xbc61b990	-0.013777152
251	0xbda2c248	-0.079472125
252	0x3d81b91b	0.06334134
253	0x3ccc056c	0.02490493
254	0xbd711393	-0.058856558
255	0xbdb2ea35	-0.08736078

out_layer.weight f4 [1, 128]
0	0xbf04a18e	-0.5180901
1	0x3dcf56c1	0.10123969
2	0x3d04bd6e	0.032407217
3	0x3c649faa	0.0139540825
4	0x3d5141f5	0.051088292
5	0x3d0d500d	0.03450017
6	0x3be9d911	0.007136472
7	0xbd1888be	-0.037239783
8	0xbb365ffb	-0.0027828205
9	0x3cd341ac	0.02578815
10	0xbd92207d	-0.07135103
11	0x3f077ae8	0.52921915
12	0xbfb65036	-1.4243228
13	0x3ce33d37	0.02773915
14	0x3d867434	0.06565133
15	0xbb03a191	-0.0020085315
16	0xbd9c1cfb	-0.07622715
17	0xbbdfcf1d	-0.0068301097
18	0x3b2b4ffa	0.00261402
19	0xbbe185b1	-0.0068823923
20	0xbe2ad174	-0.16681463
21	0xbe85bff4	-0.2612301
22	0x3c834ec7	0.016028775
23	0x3dba2fbf	0.09091138
24	0x3e083224	0.13300377
25	0xbe3c581a	-0.18392983
26	0x3d1b6101	0.037934307
27	0x3db5a990	0.08870232
28	0x3e166119	0.14685477
29	0x3e8c6d74	0.27427256
30	0x3da0bd44	0.078485996
31	0xbb4391d2	-0.0029841554
32	0x3e06bfb3	0.13159065
33	0xbc309f32	-0.010780143
34	0xbcc9cd4f	-0.024634032
35	0x3c1eaa5a	0.00968417
36	0x3d3c7b29	0.046015892
37	0x3e289939	0.164647
38	0xbf7814c5	-0.9690669
39	0x3d29377d	0.041312683
40	0xbd4907b1	-0.0490796
41	0x3eaa9b8e	0.33321804
42	0xbee45116	-0.44593114
43	0xbca46d53	-0.020071661
44	0xbe066fcb	-0.13128583
45	0xbd6eea3a	-0.058328845
46	0xbeaade28	-0.33372617
47	0x3efa9c96	0.4894759
48	0x3cb2d615	0.021830598
49	0xbeafaf4a	-0.34313422
50	0xbd1709a2	-0.03687442
51	0x3bcfe0b5	0.006343926
52	0xba8ae445	-0.0010596594
53	0x3c8e182d	0.017345512
54	0x3dc7f181	0.0976286
55	0x3da77fdf	0.08178686
56	0x3ccc2178	0.024918303
57	0x3ed1758b	0.4090999
58	0x3f65b521	0.89729506
59	0xbd95568c	-0.07291898
60	0x3ede16d6	0.43376797
61	0xbdc8a09d	-0.097962596
62	0x3cea6afc	0.028615467
63	0xbe7c1250	-0.2461636
64	0x3d8fc5cd	0.070201494
65	0xbea0f837	-0.31439373
66	0x3cd575ff	0.026057241
67	0x3e36d7c3	0.17855744
68	0xbec7bc23	-0.39010724
69	0xbf176421	-0.5913716
70	0x3c49b697	0.012311599
71	0x3e27867e	0.16359898
72	0x3e381fcc	0.1798088
73	0xbeaec4ef	-0.34134623
74	0xbda691b2	-0.08133258
75	0x3e9ea6ef	0.30986735
76	0x3e971f51	0.2951608
77	0xbf1a1902	-0.6019441
78	0x3ee3126b	0.4434999
79	0x3ed74111	0.4204183
80	0x3ccd02a2	0.02502567
81	0xbb9c2b65	-0.004765915
82	0xbd1a24fb	-0.037632924
83	0xbd709529	-0.058736
84	0xbda062f1	-0.078313716
85	0xbe788768	-0.24270403
86	0xbd815f83	-0.063170455
87	0x3f09e061	0.53858
88	0xbf7de803	-0.99182147
89	0x3da982fb	0.08276936
90	0xbcf91b15	-0.030408422
91	0xbdc3baf1	-0.095571406
92	0x3ce09324	0.027413912
93	0x3da1b0df	0.078950636
94	0xbe9c9418	-0.30581737
95	0x3f330505	0.69929534
96	0x3d396b5b	0.045268398
97	0xbea3e1c9	-0.32008198
98	0xbe9acf44	-0.30236256
99	0xbd1f5706	-0.03890135
100	0x3c8c9049	0.017158644
101	0x3e578d1c	0.21049923
102	0x3dc651a3	0.0968354
103	0x3e027a22	0.12741902
104	0xbaa9f7ed	-0.0012967564
105	0xbc6c5b73	-0.0144261
106	0x3e9560d1	0.29175428
107	0xbf27ee52	-0.6559802
108	0xbc190509	-0.009339579
109	0xbd84f6d5	-0.06492392
110	0x3c538607	0.012910373
111	0x3cb18afd	0.02167272
112	0x3dec2d3e	0.11532067
113	0x3a880c84	0.0010379707
114	0x3d845126	0.0646079
115	0x3db53316	0.088476345
116	0xbc0dbd8f	-0.008651151
117	0xbded7253	-0.11594071
118	0x3dd1a046	0.10235648
119	0x3e230f11	0.15923716
120	0x3a1ebaa4	0.00060550333
121	0xbd4c6496	-0.049900614
122	0x3caa4677	0.020785553
123	0x3e821d83	0.2541314
124	0x3e1448be	0.14480874
125	0xbee26c7d	-0.44223395
126	0xbf320246	-0.6953472
127	0x3eeec879	0.46637323
