molecules/notebooks/gcn_model.pt (torch, 87964 bytes, 5 tensors)

conv_layers.0.bias f4 [128]
0	0xbb4ccda0	-0.0031250492
1	0x3baccc69	0.005273391
2	0xbb1e2db3	-0.0024136126
3	0x394751a7	0.00019008537
4	0x3a2832b6	0.0006416248
5	0x39d49df9	0.0004055349
6	0x3a4a7d6b	0.0007724377
7	0x3b67b1d6	0.0035353801
8	0xbbbf21ea	-0.0058329003
9	0x3b794d7f	0.0038040576
10	0x3b42a49e	0.002970017
11	0xbaa59887	-0.0012633958
12	0x3ba620c0	0.005069822
13	0xbbb614ee	-0.005556694
14	0x3b17ffdb	0.0023193273
15	0xbb191957	-0.002336105
16	0xb94bb73c	-0.00019427849
17	0xbb1c1b31	-0.0023819918
18	0xb942bbe2	-0.00018571274
19	0x3b24698b	0.0025087323
20	0x3b3c034b	0.0028688486
21	0x3a3cc733	0.0007201314
22	0xbb5dcb0a	-0.0033842945
23	0x3b790db1	0.0038002545
24	0xbbfa79a6	-0.007643896
25	0x3b58c3db	0.0033075723
26	0x3b370d56	0.0027931533
27	0x3a3af127	0.00071312714
28	0xbb516765	-0.0031952497
29	0x3a484e42	0.0007641056
30	0xbb237d8b	-0.0024946656
31	0xbb8821bf	-0.0041544135
32	0xba7d1cf6	-0.00096554996
33	0x3a8e0d1e	0.001083765
34	0xbbe52938	-0.006993439
35	0xbb1ddbfd	-0.0024087422
36	0xbb494783	-0.003071279
37	0xba29fa2e	-0.0006484118
38	0x3aa932c5	0.0012908807
39	0xbba70733	-0.0050972938
40	0x3b564b18	0.0032698568
41	0x3b93f543	0.0045153215
42	0x3b27260d	0.0025504858
43	0xb9d3cd4c	-0.00040398014
44	0x3b38e1be	0.0028210725
45	0x3bc24cab	0.0059295497
46	0x3bf9bcf4	0.007621402
47	0xbad0a282	-0.0015917572
48	0x3b59a3dd	0.0033209242
49	0xbb22698f	-0.0024782156
50	0xbb5909f2	-0.00331175
51	0x3bfa281f	0.0076341773
52	0x3b01a7d1	0.0019783864
53	0xb9ca2712	-0.00038557552
54	0x3be9c1f8	0.0071337186
55	0x3b834f4e	0.0040072566
56	0xba9ccc7d	-0.0011962798
57	0xb99e57f6	-0.00030201644
58	0x3b7c1d30	0.0038469546
59	0xbb696d39	-0.003561808
60	0xbb22e8ba	-0.0024857954
61	0x3b547ca1	0.0032422917
62	0x3b578e7c	0.0032891324
63	0x3bd4ef6d	0.0064982683
64	0x396b32f3	0.00022430326
65	0xbb8ab844	-0.004233392
66	0xb9f84864	-0.0004735618
67	0xbafa36ad	-0.0019089781
68	0x3b32085d	0.002716563
69	0xbb69ce73	-0.0035676032
70	0xb902ba97	-0.00012467276
71	0x3b9a170c	0.0047024544
72	0xb9bac8ee	-0.0003562639
73	0x3acbc14f	0.0015545281
74	0x3b5303fd	0.0032198422
75	0x3a2b90a6	0.00065446866
76	0x3b641aa0	0.0034805909
77	0xba92be13	-0.0011195563
78	0x3a4c2ca4	0.00077886344
79	0x3b6678dd	0.0035167255
80	0xbacc835f	-0.0015603116
81	0x3b370d5c	0.0027931547
82	0x39a56228	0.00031544385
83	0xb9c41142	-0.0003739689
84	0xbb1edfe8	-0.0024242345
85	0x3ab32d10	0.0013670046
86	0xb94383d1	-0.00018645755
87	0x3b5d6062	0.0033779372
88	0xbb8686bc	-0.004105417
89	0xbb4d7cf5	-0.0031354998
90	0xbba64e44	-0.005075248
91	0xbbdcd7a6	-0.0067395745
92	0x3bbb6857	0.0057192254
93	0xbb9cb925	-0.004782813
94	0x391b850c	0.00014831516
95	0xba9b7efc	-0.0011863406
96	0x3bbed491	0.0058236797
97	0xb9846efb	-0.0002525969
98	0x3b69c337	0.0035669336
99	0x3ae8fcd6	0.0017775546
100	0x3abdf86a	0.0014493589
101	0x3c05e8ed	0.00817321
102	0xbb03bc10	-0.0020101108
103	0x3bcad5aa	0.0061900215
104	0xb9c5a043	-0.00037694172
105	0xbbd12e2d	-0.0063836784
106	0x3b9fd101	0.00487721
107	0xb8878c12	-6.463392e-05
108	0x3b43473a	0.0029797093
109	0xbb4c7bbb	-0.0031201679
110	0xba03d003	-0.00050282496
111	0xbb5c9dd6	-0.0033663413
112	0xbb754dd5	-0.0037430425
113	0xbb899a46	-0.004199299
114	0xb8cd0cac	-9.777522e-05
115	0x3aba872d	0.0014230959
116	0x3ae735ab	0.0017639896
117	0xbba42a8a	-0.005009954
118	0x3b261c13	0.0025346323
119	0xbb191938	-0.0023360979
120	0x39eb26fe	0.00044851744
121	0x3abc77df	0.0014378986
122	0xbac7bb3a	-0.0015238293
123	0x3bf4ad55	0.007466952
124	0xbbcf97df	-0.006335243
125	0xb935eedd	-0.00017350489
126	0xbbb11865	-0.0054045194
127	0x3aa6b872	0.0012719764

conv_layers.0.lin.weight f4 [128, 34]
0	0xbe4237df	-0.18966626
1	0x3defec58	0.11715001
2	0xbde51445	-0.11185507
3	0x3d835d0b	0.06414231
4	0xbe1d6832	-0.15371779
5	0xbd81c822	-0.063370004
6	0x3e2889bd	0.16458793
7	0xbe48d5d8	-0.19612825
8	0xbe34a0d6	-0.17639479
9	0x3e504816	0.20339999
10	0xbe334aaa	-0.17508951
11	0x3e172f30	0.14764094
12	0xbe48819f	-0.19580697
13	0xbdbb8d0a	-0.091577604
14	0x3e332d85	0.17497833
15	0xbe08e54b	-0.13368718
16	0xbd317b42	-0.04333044
17	0x3e0e2ca3	0.13884215
18	0x3d2e36b4	0.042532638
19	0x3df4db12	0.11955847
20	0x3dc101ab	0.09424146
21	0x3a03a58b	0.0005021921
22	0xbd111dcf	-0.03542882
23	0xbd7438a8	-0.059624344
24	0x3d882a22	0.06648661
25	0xbe193902	-0.14963153
26	0x3e2c1003	0.16802983
27	0xbe07b3cf	-0.13252185
28	0x3dd43bce	0.10362969
29	0xbe4359d9	-0.19077243
30	0xbe2186ba	-0.1577405
31	0xbd0038e5	-0.03130426
32	0x3df73482	0.12070562
33	0xbde5e919	-0.112261005
34	0xbe302063	-0.17199855
35	0xbd763249	-0.06010655
36	0x3bfc25dd	0.0076949433
37	0xbcd9acd5	-0.02657167
38	0x3b938d97	0.004502963
39	0x3d915717	0.07096689
40	0xbd82b848	-0.06382805
41	0xbe17e4cf	-0.14833377
42	0xbd517890	-0.051140368
43	0xbe1b0b41	-0.15141012
44	0xbe30e5e6	-0.172752
45	0x3de059a0	0.109545946
46	0x3e2cfc2a	0.16893068
47	0x3db8f65f	0.090313666
48	0xbc144b79	-0.009051197
49	0xbd2e56a4	-0.042563096
50	0xbe0059a1	-0.1253419
51	0xbe363d7e	-0.17796895
52	0xbd5938c0	-0.053032637
53	0x3e15b446	0.1461955
54	0xbd52ef76	-0.0514979
55	0xbddac6c0	-0.1068244
56	0x3e16352c	0.14668721
57	0xbdec5654	-0.11539903
58	0xbe4a0e4d	-0.19732018
59	0xbdcb350c	-0.09922227
60	0x3ddf6c6d	0.109093525
61	0xbe388213	-0.1801837
62	0xbdc887b0	-0.09791505
63	0xbce788b0	-0.02826342
64	0x3c286451	0.010277824
65	0xbe2f5353	-0.1712163
66	0xbddbd4cb	-0.107339464
67	0x3df40fd2	0.1191708
68	0x3d9e46a8	0.0772832
69	0x3d3217e3	0.04347981
70	0x399094fe	0.00027576828
71	0xbae86909	-0.0017731498
72	0x3cc8d8ea	0.024517495
73	0x3dff1dfe	0.124568924
74	0xbe0a9ff3	-0.13537578
75	0xbd34760d	-0.044057894
76	0x3d602b64	0.05472888
77	0xbda5ee8c	-0.0810214
78	0x3e1e1852	0.15438965
79	0xbdb56e0a	-0.08858879
80	0x3c48e31c	0.012261178
81	0x3d07822d	0.03308313
82	0xbd676615	-0.056493837
83	0x3dfb6daf	0.1227678
84	0xbcfc5c77	-0.03080581
85	0x3e21f8bf	0.15817545
86	0xbdee7ab1	-0.11644495
87	0x3e052d30	0.13005519
88	0xbcaa68a2	-0.020801846
89	0xbd1cd250	-0.038286507
90	0xbde3523a	-0.11099668
91	0xbe19f838	-0.15036094
92	0xbc0b7912	-0.008512752
93	0x3d8f0fd3	0.0698544
94	0xbe31c71b	-0.17361109
95	0x3e43cab6	0.19120297
96	0x3e3b5509	0.18294157
97	0x3de55a4b	0.11198863
98	0x3e03d571	0.1287439
99	0xbd14fa0c	-0.036371276
100	0xbe2e8a8f	-0.17045043
101	0xbd8d8033	-0.06909218
102	0xbce61c6b	-0.028089723
103	0x3e44b03b	0.19207852
104	0xbdff7cda	-0.124749854
105	0x3dbbfb2e	0.09178768
106	0xbdf7b4f8	-0.12095064
107	0xbdd54652	-0.10413803
108	0x3d8d8f21	0.06912065
109	0xbd998175	-0.07495395
110	0xbd560769	-0.05225316
111	0xbc8a094d	-0.016850138
112	0x3d9f1de7	0.07769375
113	0xbe2bf18c	-0.16791362
114	0x3e1a0083	0.15039258
115	0x3e2ac83e	0.16677949
116	0x3d313f06	0.043272994
117	0x3c8e5dbe	0.017378684
118	0x3e34c83e	0.17654511
119	0x3de70f6e	0.1128224
120	0x3d90b99e	0.07066654
121	0xbe3fa635	-0.18715747
122	0xbe0ad5c9	-0.13558115
123	0xbb0da22a	-0.002161155
124	0xbdd2ffdf	-0.1030271
125	0xbbe28cc0	-0.0069137514
126	0xbdb13fff	-0.086547844
127	0xbe239ffa	-0.15978995
128	0xbda18b60	-0.07887912
129	0x3d949627	0.07255202
130	0xbe1bd18c	-0.15216655
131	0xbe3c1102	-0.18365863
132	0xbd8593a1	-0.065222986
133	0xbd4bbd69	-0.049741182
134	0x3d02dacf	0.031946953
135	0xbe40fa02	-0.1884537
136	0x3e1b3299	0.1515602
137	0x3de1437f	0.10999202
138	0x3b80172a	0.0039090114
139	0x3e3c0784	0.18362242
140	0x3e077464	0.13227993
141	0x3e152557	0.14565025
142	0x3d101fcf	0.035186585
143	0xbce2a71c	-0.027667575
144	0x3e2ce8ed	0.16885729
145	0xbd86acb6	-0.06575911
146	0x3cc80312	0.024415527
147	0xbe1900d0	-0.14941716
148	0x3d694554	0.056950882
149	0x3cae3637	0.021266086
150	0x3e356c72	0.1771715
151	0xbd34034f	-0.043948468
152	0x3da5524c	0.080723375
153	0xbe24a651	-0.1607907
154	0x3e099ef5	0.13439544
155	0xbd0ef4ff	-0.034901615
156	0x3e2f50c5	0.17120655
157	0xbdbc977e	-0.09208582
158	0xbe0d4577	-0.1379603
159	0xbdc5c687	-0.09657007
160	0x3d900dd2	0.07033886
161	0xbd2b7264	-0.04185714
162	0x3d675bb8	0.056483954
163	0x3d1d5cd0	0.03841859
164	0x3dfb66ae	0.12275444
165	0xbe2ad50d	-0.16682835
166	0x3e1ce281	0.1532078
167	0x3cb0486c	0.021518908
168	0xbe410cb3	-0.188525
169	0x3e162900	0.14664078
170	0x3dfe61fa	0.12421031
171	0xbd870126	-0.06592016
172	0xbdc52495	-0.09626118
173	0x3e20cbe4	0.15702778
174	0xbccc337a	-0.02492689
175	0xbdd2a4b6	-0.10285322
176	0xbde009a7	-0.10939341
177	0xbd11e7ce	-0.035621457
178	0x3df983a8	0.121833146
179	0x3d23a7dd	0.03995501
180	0x3b3b533f	0.0028583554
181	0xbd818a20	-0.063251734
182	0x3d0bbb39	0.034114096
183	0x3e27faa5	0.16404207
184	0x3d5904c2	0.052983053
185	0xbd6e609a	-0.058197595
186	0x3c9b0125	0.018921444
187	0x3ce96400	0.028490067
188	0xbd9df407	-0.0771256
189	0xbcdb338f	-0.026757983
190	0x3e3886c5	0.1802016
191	0xbb7f27fa	-0.003893374
192	0xbe0068eb	-0.12540023
193	0x3ded7a3e	0.115955815
194	0xbe22aa81	-0.15885355
195	0xbe16e931	-0.14737393
196	0x3e23592d	0.15951987
197	0xbc653368	-0.013989307
198	0x3cee1020	0.029060423
199	0xbdaf2a48	-0.085529864
200	0xbe10f124	-0.14154488
201	0x3da54b38	0.080709875
202	0xbdeb333f	-0.11484384
203	0xbd37fae2	-0.044916995
204	0xbc762cb1	-0.015025304
205	0x3c20a52c	0.009805005
206	0x3e343eaa	0.1760203
207	0xbe365fb0	-0.1780994
208	0xbda36b39	-0.079794355
209	0xbe2c8638	-0.16848075
210	0xbe05223a	-0.13001338
211	0xbbcf542d	-0.006327173
212	0xbe172a4b	-0.14762227
213	0x3cd9b46d	0.026575292
214	0xbd927d7b	-0.0715284
215	0x3c8f89f1	0.01752183
216	0xbc507c13	-0.012724894
217	0xbe330f19	-0.17486228
218	0x3daa5749	0.083174296
219	0xbe5a0db9	-0.21294297
220	0xbd0b38f0	-0.033989847
221	0x3c91db10	0.017804652
222	0xbd3b4924	-0.04572405
223	0x3b9a0802	0.0047006616
224	0x3d912fc4	0.07089189
225	0x3e22dd64	0.15904766
226	0x3de23b16	0.11046426
227	0xbde648dd	-0.11244366
228	0xbcc3b448	-0.023889676
229	0xbe209112	-0.1568034
230	0xbd9eb88e	-0.07750045
231	0xbd3e89db	-0.046518188
232	0x3dff6786	0.124709174
233	0xbdae3e17	-0.085079364
234	0x3e2e407a	0.17016783
235	0x3bf8613c	0.0075799506
236	0x3d8535ab	0.06504377
237	0xbe33b4de	-0.17549464
238	0x3cdb6998	0.02678375
239	0xbd002893	-0.031288695
240	0x3e0a9190	0.1353209
241	0x3df6f60d	0.12058649
242	0xbe1fb278	-0.15595424
243	0x3c78393b	0.015150364
244	0xbdbaebab	-0.09126981
245	0x3e1b2c84	0.151537
246	0x3e2766a3	0.16347747
247	0x3e112e28	0.14177763
248	0xbc65d5ff	-0.014028071
249	0x3e0ae975	0.1356562
250	0x3bce5bfd	0.006297587
251	0xbc178e2d	-0.009250206
252	0x3da84cb3	0.08217754
253	0xbd285c9a	-0.041103937
254	0xbdf2984a	-0.11845453
255	0xbd11dbc4	-0.035609975

conv_layers.1.bias f4 [128]
0	0xbb36207e	-0.0027790363
1	0xba24e553	-0.00062902755
2	0x3a832cb1	0.0010007826
3	0x3ad85e51	0.0016507601
4	0xbac59054	-0.001507292
5	0x3ab54fda	0.0013833002
6	0x3b19abd8	0.0023448374
7	0xba85b37a	-0.0010200583
8	0xbb81162f	-0.003939412
9	0xbbaa9ae2	-0.0052064518
10	0xb9754eba	-0.00023394349
11	0xba98c3f9	-0.0011655084
12	0x3b9779db	0.0046226806
13	0x3aa3062a	0.001243775
14	0x3aef15c3	0.0018240738
15	0x3af6ae6d	0.0018820293
16	0xbaf6e074	-0.0018835203
17	0xbb2606a7	-0.0025333555
18	0xb98dd2c1	-0.0002705064
19	0xba9e6375	-0.0012084084
20	0x3ab35eca	0.0013684866
21	0x3a204f77	0.0006115357
22	0x39e389fe	0.00043399626
23	0xba8e7c0b	-0.0010870708
24	0xba1eb02c	-0.00060534733
25	0xba0686de	-0.0005131791
26	0xbabb980c	-0.0014312281
27	0xb865d989	-5.480045e-05
28	0x3b17509e	0.0023088823
29	0xbb088247	-0.0020829604
30	0x3b670206	0.0035249009
31	0x39c4d6aa	0.0003754397
32	0x3a9ee0f3	0.0012121483
33	0xb60884ad	-2.0342807e-06
34	0xb982d724	-0.00024955824
35	0xbafd20ed	-0.0019312181
36	0xb9a33113	-0.00031126346
37	0xbaf93812	-0.0019013903
38	0xb9584a45	-0.00020627033
39	0xbb4194d7	-0.0029538178
40	0x3abf01fc	0.0014572735
41	0x3a110297	0.0005531697
42	0xbac22db6	-0.0014814648
43	0xb91bb0f1	-0.00014847868
44	0x3aefd01a	0.0018296272
45	0xba22fca1	-0.0006217454
46	0x3af15eab	0.0018415054
47	0x39c8a005	0.00038266196
48	0xb8b64a8b	-8.692321e-05
49	0x3a18f15b	0.00058343046
50	0xb9d8ddf9	-0.00041364113
51	0xbb2c8792	-0.0026325923
52	0x3b03290e	0.0020013484
53	0x38ef05a6	0.0001139746
54	0xbb15c7c7	-0.0022854672
55	0xba0d439d	-0.00053887983
56	0xbb3af9bf	-0.0028530208
57	0xbb9ed341	-0.004846961
58	0xba23c085	-0.0006246644
59	0x3a08d1a3	0.00052192266
60	0x3ae3ea15	0.0017388487
61	0x3992771d	0.00027936036
62	0xba92d815	-0.0011203313
63	0xbabee3c7	-0.0014563733
64	0x3b287229	0.002570281
65	0x3b0a4a21	0.0021101313
66	0xbb51f5fd	-0.003203749
67	0xbb03b621	-0.002009757
68	0x3b2caf11	0.0026349465
69	0xba3176ab	-0.0006769697
70	0x3ad144c4	0.0015965928
71	0xb833bdda	-4.285374e-05
72	0xb891cff1	-6.952871e-05
73	0xba3492c7	-0.00068883266
74	0x3a96c9a6	0.0011504188
75	0xba1dd2cd	-0.00060204865
76	0xb95ed763	-0.00021251808
77	0xbb05543b	-0.0020344395
78	0xbbd761d3	-0.006572941
79	0xbac8c865	-0.0015318511
80	0xbae8c176	-0.0017757851
81	0x3ad7fa37	0.0016477768
82	0xbac1f2c5	-0.0014797082
83	0x3ade3b44	0.0016954918
84	0xba5c98a9	-0.0008415082
85	0xbaf08a16	-0.00183517
86	0xb8aff6ad	-8.390597e-05
87	0x3aa260ab	0.0012388428
88	0x3b05dada	0.0020424635
89	0x3b508d8b	0.0031822647
90	0x3af5f01a	0.0018763572
91	0xbab62e79	-0.0013899348
92	0x3ae4e68a	0.0017463726
93	0xb79aac65	-1.8438508e-05
94	0x3959d03e	0.00020772309
95	0x3a3e99ae	0.0007270825
96	0xba8a3c0f	-0.0010546463
97	0x3b521a09	0.0032058975
98	0x39d8f952	0.0004138449
99	0xba0b349f	-0.00053102704
100	0xb9a8fef7	-0.0003223342
101	0xba95bbe5	-0.0011423795
102	0x3b4cb819	0.003123766
103	0xbb054e25	-0.0020340767
104	0x3a5c6d22	0.0008408596
105	0xba9b8019	-0.0011863738
106	0xba89b6c9	-0.0010506745
107	0xba7f3b77	-0.0009736339
108	0xb91e8d2c	-0.00015120645
109	0xbabe7b41	-0.0014532582
110	0x3831fc33	4.2434967e-05
111	0xbaf5f106	-0.0018763847
112	0x3aaf1bdc	0.0013359743
113	0x3a49a851	0.00076926226
114	0xba5e05cf	-0.00084694935
115	0xba8d328f	-0.0010772514
116	0x3b2d1502	0.0026410227
117	0x3b157328	0.0022804234
118	0x3b42af76	0.0029706634
119	0x3a4dd7dc	0.0007852295
120	0xbb2548dd	-0.0025220432
121	0x3aa7effb	0.0012812609
122	0x3afab1ff	0.0019126533
123	0x3ac26ae8	0.0014832886
124	0x39b64855	0.00034767637
125	0x3b1e5c63	0.0024163953
126	0x3aec132d	0.0018011086
127	0x3b146c15	0.002264743

conv_layers.1.lin.weight f4 [128, 128]
0	0x3d593be4	0.05303563
1	0xbe1a8438	-0.150895
2	0xbd864252	-0.06555618
3	0x3e1e3fe9	0.15454067
4	0xbdb73857	-0.08946293
5	0x3d8243fd	0.06360624
6	0xbd326ba8	-0.0435597
7	0xbdec137c	-0.11527154
8	0x3dc9a4f0	0.098459125
9	0x3e1ba0d9	0.15198077
10	0xbe1f5579	-0.15559949
11	0x3d3efde7	0.04662886
12	0xbd8bde21	-0.06829477
13	0xbbae5c08	-0.0053210296
14	0x3e0d8013	0.13818388
15	0x3bfb30c7	0.007665727
16	0x3cfc84af	0.030824987
17	0x3e152184	0.14563566
18	0xbd2c4307	-0.04205611
19	0x3dd8fab3	0.10594692
20	0xbc845196	-0.016152184
21	0xbdc8b97b	-0.098010026
22	0xbd2879ef	-0.04113191
23	0xbe04fac5	-0.12986286
24	0xbdc15e03	-0.094417594
25	0x3d793c8b	0.060848754
26	0x3d246ea4	0.040144578
27	0xbd0e8eae	-0.03480404
28	0xbc23c7c9	-0.009996363
29	0xbda3e9d6	-0.08003585
30	0x3cd54f27	0.02603872
31	0xbdca4119	-0.09875698
32	0xbd294b6d	-0.041331697
33	0xbdfc738d	-0.12326727
34	0x3e107f03	0.14110951
35	0xbdc8fa35	-0.09813348
36	0x3c0b44e6	0.008500313
37	0xbe1519dd	-0.14560647
38	0x3c8fe54d	0.017565394
39	0xbd64634d	-0.055758763
40	0xbe033f2c	-0.12817067
41	0x3dfc49b4	0.12318745
42	0x3dc1faff	0.09471702
43	0xbe132449	-0.1436931
44	0x3dde1fa4	0.10845879
45	0x3d082b9a	0.033244707
46	0xbda956a2	-0.08268477
47	0x3caae668	0.02086182
48	0x3dd7a801	0.10530091
49	0xbd128607	-0.03577235
50	0x3d96aca1	0.07357145
51	0x3d8e7d49	0.0695749
52	0xbe0047da	-0.12527409
53	0x3ba0ed66	0.0049111126
54	0xbd25caf1	-0.040476743
55	0xbdfce6a6	-0.1234868
56	0x3bd91c50	0.0066256896
57	0xbdd77d61	-0.10521961
58	0x3d957ce6	0.07299213
59	0x3e0d9679	0.13826932
60	0xbd3410db	-0.043961387
61	0x3e149968	0.14511645
62	0x3de77d19	0.11303157
63	0xbe099ab1	-0.13437916
64	0xbd9c9932	-0.07646407
65	0x3be4652e	0.0069700694
66	0x3cea7591	0.028620513
67	0xbddd6eac	-0.108121246
68	0xbdac05ac	-0.08399519
69	0xbce075a3	-0.027399844
70	0xbc78e7bb	-0.015191968
71	0xbdb14587	-0.086558394
72	0xbdbe7e7a	-0.09301467
73	0x3e133eff	0.143795
74	0xbc08c91b	-0.0083487285
75	0xbdcf12ff	-0.10111045
76	0x3deab7c6	0.11460833
77	0x3de046b0	0.109509826
78	0x3dc938b1	0.09825266
79	0x3d6791d8	0.05653557
80	0xbc1ea9ff	-0.009684085
81	0x3d818d45	0.06325773
82	0xbd5aa0cb	-0.053376
83	0x3dded93c	0.10881278
84	0xbe010b70	-0.1260202
85	0xbe00e5dc	-0.12587684
86	0x3e09772f	0.13424371
87	0xbdb5076f	-0.088393085
88	0xbdeaef24	-0.11471394
89	0x3beba4ca	0.0071912752
90	0xbdcefe1d	-0.10107062
91	0x3d0d78c5	0.034539003
92	0x3dc32f07	0.09530454
93	0xbd8189d2	-0.06325115
94	0xbd82603b	-0.06366011
95	0x3e0ea0e8	0.13928568
96	0xbe15cc6a	-0.14628759
97	0x3dacfc04	0.08446506
98	0xbd23bd32	-0.039975353
99	0xbd61f429	-0.05516449
100	0xbdf6992d	-0.12040935
101	0xbe087122	-0.13324407
102	0xbdf02cbc	-0.117272824
103	0x3ddd7997	0.10814207
104	0x3dc6a134	0.09698716
105	0xbd3ef449	-0.046619687
106	0xbc389397	-0.011265657
107	0xbda6338c	-0.081153005
108	0xbd977ebd	-0.0739722
109	0x3e1b94e7	0.1519352
110	0xbc7b8288	-0.015350945
111	0xbe1953eb	-0.14973418
112	0x3de94662	0.113903776
113	0xbd53f746	-0.05174949
114	0x3d381e97	0.044951048
115	0xbda4abff	-0.08040618
116	0xbd4e7521	-0.05040467
117	0x3d8413df	0.064491026
118	0x3e0903ed	0.13380404
119	0xbc99d75d	-0.018779451
120	0x3e062c11	0.13102747
121	0xbdabe882	-0.08393957
122	0xbe00671d	-0.12539335
123	0xbda89f99	-0.08233566
124	0x3e0057ba	0.12533465
125	0x3dd09c99	0.10186119
126	0x3d154dba	0.03645108
127	0xbc718ed0	-0.014743522
128	0x3df5ffe1	0.12011696
129	0xbd9d886d	-0.07692037
130	0x3d837da8	0.064204514
131	0x3d61f274	0.055162862
132	0x3df8e6d4	0.12153402
133	0xbcd62532	-0.026140783
134	0x3be8af11	0.0071009477
135	0xbc181032	-0.009281205
136	0xbd5dfc92	-0.054195948
137	0xbda5c9eb	-0.080951534
138	0x3d9a9ce0	0.07549453
139	0x3d16e3df	0.03683841
140	0x3dad6d3a	0.08468099
141	0x3d133d89	0.035947356
142	0xbd3fbee5	-0.04681291
143	0x3c16c8d9	0.009203159
144	0x3cc24c38	0.023717985
145	0x3e01c20b	0.12671678
146	0x3d341a5e	0.04397046
147	0xbe0fac73	-0.14030628
148	0xbe12098e	-0.14261457
149	0xbe19d6f9	-0.15023412
150	0x3d4571e7	0.04820433
151	0x3c318f86	0.010837441
152	0x3e03b273	0.12861042
153	0xbc3577d8	-0.011075936
154	0x3d74d5dd	0.05977427
155	0xbde40eb4	-0.11135617
156	0x3da37b2b	0.07982477
157	0xbd30f7c0	-0.043205023
158	0x3d9643c0	0.07337141
159	0xbda883d5	-0.0822827
160	0xbe14f248	-0.14545548
161	0x3df4f4b1	0.11960734
162	0xbd2e2508	-0.042515785
163	0x3e09b5a9	0.13448204
164	0xbd5ac5ad	-0.053411175
165	0xbd9b13ab	-0.07572111
166	0xbb794c0a	-0.0038039708
167	0xbb800bb2	-0.003907644
168	0x3bf6ba2a	0.0075295167
169	0x3d928852	0.07154907
170	0xbe060677	-0.13088404
171	0xbd8f3617	-0.06992739
172	0xbd72d69e	-0.059286706
173	0x3ccf076d	0.025272096
174	0xbdefe7ee	-0.11714159
175	0x3da66051	0.0812384
176	0xbda5d808	-0.08097845
177	0x3d6fd5dc	0.05855356
178	0x3d1a5279	0.03767631
179	0x3dca5bd9	0.098808
180	0x3d803b27	0.062612824
181	0x3e10f06a	0.1415421
182	0xbd610220	-0.054933667
183	0xbe0c472a	-0.13699022
184	0x3e13ad38	0.14421546
185	0xbdde1685	-0.10844139
186	0xbdd604cb	-0.10450133
187	0x3e0dcd23	0.13847785
188	0xbd4c90f1	-0.049942914
189	0x3c6d83f4	0.014496792
190	0x3af632d4	0.0018783459
191	0x3e0cdff9	0.13757314
192	0xbd8351b9	-0.06412072
193	0xbda0b653	-0.078472756
194	0xbd204cd0	-0.039135754
195	0xbcd041d0	-0.025422007
196	0xbddcc0a0	-0.10778928
197	0x3ddddbdb	0.1083295
198	0x3d54df18	0.05197057
199	0xbddaac2f	-0.10677373
200	0xbe063315	-0.13105424
201	0xbd36fab4	-0.044672683
202	0x3d2fe943	0.042947065
203	0x3cee528d	0.029092098
204	0xbd923f39	-0.07140965
205	0x3c7b22ca	0.015328119
206	0xbe0d9b2a	-0.13828722
207	0x3d980caf	0.07424294
208	0xbd5219e6	-0.05129423
209	0x3d9e1148	0.0771814
210	0xbd80dfa8	-0.06292659
211	0xbda850e6	-0.08218555
212	0xbde17f0e	-0.11010562
213	0x3dd8bdc4	0.1058307
214	0xbccd7c1e	-0.025083598
215	0xbdd77f57	-0.10522335
216	0xbe2021e7	-0.15637933
217	0x3d71511b	0.05891524
218	0x3df51944	0.1196771
219	0xbca6c244	-0.020356305
220	0x3d0ab241	0.033861402
221	0x3a66a9c8	0.0008799103
222	0xbcd9d70b	-0.026591798
223	0xbb334b4a	-0.0027358108
224	0x3c696f0f	0.01424767
225	0xbe27ca97	-0.16385876
226	0xbde92770	-0.11384475
227	0xbddb00ea	-0.10693534
228	0x3e1bf153	0.15228777
229	0xbe04f28b	-0.12983148
230	0xbd777471	-0.06041378
231	0xbddf1c16	-0.10894029
232	0xbdef7ec5	-0.11694101
233	0x3d246fd3	0.040145706
234	0xbded6e82	-0.11593343
235	0xbca69f50	-0.020339638
236	0xbddc01b6	-0.10742514
237	0x3e10c7db	0.14138739
238	0x3dba44ea	0.090951756
239	0xbe0d2580	-0.13783836
240	0x3c964711	0.018344434
241	0xbe11f23b	-0.1425256
242	0x3e0332eb	0.12812392
243	0x3dee3420	0.11631036
244	0xbd36d1fc	-0.04463385
245	0x3e09af8d	0.13445874
246	0xbd540034	-0.051758006
247	0xbc443a37	-0.01197677
248	0xba89c1c1	-0.0010510014
249	0xbcafabda	-0.02144425
250	0xbc87512b	-0.016518196
251	0xbe045d2e	-0.1292617
252	0xbc6b50be	-0.014362512
253	0x3d9700f8	0.07373232
254	0xbd59add0	-0.053144276
255	0xbdc1b306	-0.09457974

out_layer.weight f4 [1, 256]
0	0xbc94a400	-0.018144608
1	0xbb963b01	-0.0045846705
2	0xbcf08fc8	-0.029365435
3	0x3bcb8992	0.006211468
4	0xbd5a043e	-0.053226702
5	0x3d3c2d5c	0.045941696
6	0x3d804be2	0.062644735
7	0x3d1bd23b	0.03804229
8	0xbc358a0d	-0.011080277
9	0xbd6437c3	-0.05571724
10	0x3d4c9c4c	0.049953744
11	0x3d5974ed	0.053090025
12	0x3d85178f	0.06498634
13	0x3d099419	0.033588503
14	0x3d19b13f	0.03752255
15	0xbba6970b	-0.0050839237
16	0xbc95306f	-0.018211571
17	0xbd0f12b3	-0.034929942
18	0xbd0ba665	-0.034094233
19	0x3c868a22	0.016423289
20	0xbd186c1e	-0.037212484
21	0x3c60c8a7	0.013719714
22	0x3c1350d4	0.008991439
23	0x3cc69f63	0.024245923
24	0xbb0921ed	-0.0020924762
25	0x3c26072d	0.010133547
26	0xbd51f768	-0.051261336
27	0xbc95b448	-0.018274441
28	0xbc2f20ca	-0.01068897
29	0xbcf7eb67	-0.030263616
30	0xbd62c71f	-0.055365678
31	0x3c65cb35	0.014025499
32	0xbc83d3ae	-0.016092148
33	0x3c8171b9	0.015801298
34	0xbcd50fc2	-0.02600849
35	0x3c910555	0.017702738
36	0xbcbc9ddd	-0.023024494
37	0xba986836	-0.0011627737
38	0xbd47dd88	-0.048795253
39	0x3cacf508	0.021112934
40	0xbd39c511	-0.045353953
41	0xbd1b63c1	-0.03793693
42	0xbd28ec43	-0.04124094
43	0x3d19a647	0.03751209
44	0xbd521f2a	-0.05129925
45	0xbc62860e	-0.013825906
46	0xbd2326f3	-0.039832067
47	0xbd2bdfc7	-0.041961458
48	0xbc8194a5	-0.01581795
49	0xbd3126f3	-0.043250035
50	0xbc89dac2	-0.016827945
51	0xbcf4c325	-0.029878208
52	0x3d665a75	0.05623861
53	0x3cc3347a	0.023828734
54	0x3cfb2e24	0.03066165
55	0x3c7ce0ff	0.015434503
56	0xbd1f4ac8	-0.038889676
57	0x3caf0b8e	0.021367814
58	0xbbe5e84c	-0.0070162173
59	0x3c55c5f1	0.013047681
60	0x3cbba671	0.022906514
61	0x3c257e65	0.010100936
62	0xbb07f4e5	-0.0020745334
63	0xbca3cba8	-0.019994572
64	0xbd1e17dc	-0.038596973
65	0xbc68ac3c	-0.01420122
66	0xbce1f4ae	-0.027582493
67	0x3d669a03	0.05629922
68	0x3d66a698	0.05631122
69	0xbc74e9b7	-0.0149483
70	0xbd2b8308	-0.041873008
71	0xbcd1de51	-0.025618704
72	0xbd38258b	-0.04495768
73	0x3cc8e178	0.024521574
74	0x3d08b840	0.03337884
75	0xbd064266	-0.032778166
76	0xbcfcaf28	-0.03084524
77	0x3d3fbacf	0.046809014
78	0xbb601246	-0.003419058
79	0x3c4e4b2c	0.012591165
80	0xbb0cf3d5	-0.002150764
81	0xbd5007d2	-0.050788708
82	0x39cb8e40	0.00038825162
83	0xbd2d4336	-0.042300425
84	0xbbd34b3f	-0.006448179
85	0x3d7de4ce	0.061985783
86	0x3c2fbf06	0.010726696
87	0xbd56f3db	-0.052478652
88	0x3ca630ce	0.020286944
89	0x3ce91dd1	0.0284566
90	0xbcc35a78	-0.02384685
91	0xbbb3316f	-0.0054685394
92	0x3d39fdde	0.045408122
93	0x3d4914c0	0.049092054
94	0xbbdfc746	-0.006829175
95	0xbbf1b76e	-0.007376603
96	0x3c0d9172	0.008640634
97	0x3d666c0b	0.05625538
98	0xbcadf15d	-0.021233255
99	0xbcc059ee	-0.023480382
100	0x3d4c2026	0.049835347
101	0xbbfd135d	-0.0077232555
102	0xbcfd97de	-0.030956205
103	0x3c8e7038	0.017387494
104	0x3a2b49b5	0.00065341155
105	0x3a26dd91	0.00063654134
106	0xbd139782	-0.03603316
107	0x3cee2063	0.029068178
108	0x3d487c67	0.048946764
109	0x3bca9894	0.0061827395
110	0x3d24b3c4	0.0402105
111	0x3a4408c9	0.0007478116
112	0xbcc33ec4	-0.02383364
113	0xbcdd7c6f	-0.027036874
114	0x3c30d61a	0.010793233
115	0x3be7647f	0.0070615406
116	0xbcdaea48	-0.026723042
117	0x3d73c38b	0.059512656
118	0xbd29e7fe	-0.04148101
119	0x3d4be063	0.04977454
120	0x3d0a6d9f	0.03379595
121	0xbc2ef95a	-0.010679567
122	0x3d86dc82	0.06585027
123	0xbc47c3e5	-0.012192701
124	0x3d7b6cf2	0.061383195
125	0x3d2fdf87	0.04293778
126	0x3c7dd00f	0.0154915
127	0xb8cbb33c	-9.713179e-05
128	0x3d01371b	0.031546693
129	0xbcde9ef9	-0.027175413
130	0xbc85f898	-0.01635389
131	0x3bd4dd79	0.006496128
132	0x3c988b89	0.018621223
133	0x3d07f8b9	0.033196185
134	0xbb0a5d9a	-0.002111292
135	0xbd30086c	-0.04297678
136	0xbd0ed8b6	-0.03487464
137	0xbb95decf	-0.00457368
138	0x3cf36bcf	0.029714493
139	0xbb270b0f	-0.002548877
140	0x3cceac48	0.025228634
141	0xbd245c55	-0.040127117
142	0xbc8c085c	-0.01709383
143	0xbc5d9afb	-0.01352572
144	0xbd1d3ce1	-0.038388137
145	0x3d20df60	0.039275527
146	0x3d7100f1	0.05883879
147	0xbc78300d	-0.015148175
148	0x3ce62575	0.028094033
149	0x3c48c7e2	0.012254687
150	0x3aae0385	0.0013276195
151	0xbbdd2730	-0.0067490563
152	0x3cf6e56d	0.030138696
153	0xbc8d0fa2	-0.017219368
154	0xbd315cd3	-0.043301415
155	0xbd121357	-0.035662975
156	0xbd21d7ec	-0.03951256
157	0xbd27cb8f	-0.040965613
158	0x3d423c14	0.047420576
159	0x3d3cbe1e	0.046079747
160	0xbcc78af0	-0.024358243
161	0xbd0a28d1	-0.03373033
162	0xbce71a49	-0.028210776
163	0xbcc6668e	-0.024218824
164	0x3d15838d	0.03650241
165	0xbd5248c7	-0.051338937
166	0xbb9264c0	-0.0044675767
167	0x3d59b165	0.053147692
168	0x3bd63d82	0.006538094
169	0x3ccf000f	0.025268583
170	0xbd4452ba	-0.047930457
171	0xbcfbb6de	-0.030726846
172	0x3ce29512	0.027658973
173	0x3d1fd5b4	0.039022163
174	0x3d60497b	0.054757576
175	0x3d12f9ff	0.035882946
176	0x3b137762	0.0022501578
177	0xbcdb8777	-0.026797993
178	0x3c3b3358	0.0114258155
179	0xbd1729f6	-0.03690525
180	0xbd4d022e	-0.050050907
181	0x3d06f511	0.032948557
182	0xbcd82c64	-0.026388355
183	0x3c97aa0a	0.018513698
184	0x3d492a73	0.04911275
185	0xbd0555dc	-0.032552585
186	0x3d367c75	0.044552285
187	0xbcb248bc	-0.021763198
188	0x3cc8460b	0.024447462
189	0xbb55741b	-0.0032570425
190	0xbc9f4592	-0.019442353
191	0x3c94b437	0.01815234
192	0xbd479a3b	-0.04873107
193	0x3d0dcce8	0.034619242
194	0xbce90944	-0.028446801
195	0xbbb8c6bb	-0.005638925
196	0xbd46564b	-0.04842214
197	0x3c7c6138	0.015404038
198	0xbcff94ca	-0.031198878
199	0xbd298d61	-0.041394595
200	0x3d6074bf	0.054798838
201	0xb9a16f86	-0.00030791404
202	0xbc86879b	-0.016422084
203	0x3c9b8280	0.018983126
204	0xbb4dc379	-0.0031397028
205	0x3d3b3247	0.045702245
206	0x3d6106be	0.05493807
207	0x3bd32113	0.0064431517
208	0x3ce8c65e	0.028414901
209	0xbc82ac4c	-0.015951298
210	0xbcdfc0ac	-0.027313553
211	0x3d2017f5	0.039085347
212	0xbb27fe6a	-0.002563382
213	0xbd512bc3	-0.051067125
214	0xbd1afe3e	-0.03784012
215	0x3d01d4fa	0.03169725
216	0x3d3881cc	0.04504566
217	0x3cf3a1c3	0.02974022
218	0xbd00435a	-0.03131423
219	0xbd1860b9	-0.037201617
220	0xbd1ac2ea	-0.03778354
221	0xbb7881fe	-0.0037919278
222	0x3c96902a	0.01837929
223	0x3d4a9eef	0.049467977
224	0xbd014906	-0.03156378
225	0x3cff3f80	0.031158209
226	0x3c4821c9	0.012215086
227	0x3d253fbe	0.040343992
228	0x3c328ab1	0.010897324
229	0xbc7b147b	-0.015324707
230	0x3d2d17e6	0.04225912
231	0xbcdfd27f	-0.027322052
232	0x3c071c61	0.008246512
233	0x3c356513	0.011071461
234	0x3d26b419	0.0406991
235	0x3ce957ec	0.028484307
236	0xbc079435	-0.008275081
237	0x3d28df10	0.041228354
238	0xbd0daf44	-0.034590974
239	0x3ca337ca	0.019924063
240	0xbd4308fd	-0.047615994
241	0xbcb8b557	-0.022547407
242	0x3c98b6c2	0.018641833
243	0xbd1bff76	-0.038085423
244	0xbcdf80f9	-0.027283179
245	0xbd15be7e	-0.03655862
246	0xbcad85da	-0.02118199
247	0x3d0f3fc4	0.03497292
248	0xbd4cd38a	-0.050006427
249	0xbc1e8d0e	-0.009677185
250	0xbd38d2a0	-0.045122743
251	0x3d1f3600	0.038869858
252	0x3d071113	0.032975268
253	0x3bdacf0a	0.006677513
254	0x3bb453e4	0.0055031646
255	0xbd4674f2	-0.04845137
